#loc = loc("/workspace/projects/aiter/aiter/ops/triton/_triton_kernels/attention/mha.py":323:1)
#loc229 = loc("/workspace/projects/aiter/aiter/ops/triton/utils/_triton/pid_preprocessing.py":28:1)
#loc244 = loc("/workspace/projects/aiter/aiter/ops/triton/_triton_kernels/attention/mha.py":19:1)
#loc251 = loc("/workspace/projects/aiter/aiter/ops/triton/_triton_kernels/attention/mha.py":77:1)
#loc291 = loc("/workspace/projects/aiter/aiter/ops/triton/_triton_kernels/attention/mha.py":24:1)
#loc294 = loc("/workspace/projects/triton-openai/python/triton/language/standard.py":177:1)
#loc296 = loc(unknown)
#loc298 = loc("/workspace/projects/triton-openai/python/triton/language/standard.py":169:1)
#loc301 = loc("/workspace/projects/triton-openai/python/triton/language/standard.py":287:1)
#loc304 = loc("/workspace/projects/triton-openai/python/triton/language/standard.py":262:1)
#loc324 = loc("q_ptr"(#loc))
#loc325 = loc("k_ptr"(#loc))
#loc326 = loc("v_ptr"(#loc))
#loc327 = loc("out_ptr"(#loc))
#loc328 = loc("softmax_lse_ptr"(#loc))
#loc329 = loc("stride_qz_in"(#loc))
#loc330 = loc("stride_qh_in"(#loc))
#loc331 = loc("stride_qm_in"(#loc))
#loc332 = loc("stride_kz_in"(#loc))
#loc333 = loc("stride_kh_in"(#loc))
#loc334 = loc("stride_kn_in"(#loc))
#loc335 = loc("stride_vz_in"(#loc))
#loc336 = loc("stride_vh_in"(#loc))
#loc337 = loc("stride_vn_in"(#loc))
#loc338 = loc("stride_descale_q_z_in"(#loc))
#loc339 = loc("stride_descale_k_z_in"(#loc))
#loc340 = loc("stride_descale_v_z_in"(#loc))
#loc341 = loc("stride_oz_in"(#loc))
#loc342 = loc("stride_oh_in"(#loc))
#loc343 = loc("stride_om_in"(#loc))
#loc344 = loc("stride_alibi_z_in"(#loc))
#loc345 = loc("stride_alibi_h_in"(#loc))
#loc346 = loc("stride_sd_z_in"(#loc))
#loc347 = loc("stride_sd_h_in"(#loc))
#loc348 = loc("stride_sd_m_in"(#loc))
#loc349 = loc("stride_sd_n_in"(#loc))
#loc350 = loc("stride_lse_z_in"(#loc))
#loc351 = loc("stride_lse_h_in"(#loc))
#loc352 = loc("sm_scale"(#loc))
#loc353 = loc("dropout_p"(#loc))
#loc354 = loc("philox_seed"(#loc))
#loc355 = loc("philox_offset_base_in"(#loc))
#loc356 = loc("SEQLEN_Q"(#loc))
#loc357 = loc("SEQLEN_K"(#loc))
#loc524 = loc("pid"(#loc229))
#loc537 = loc("x"(#loc244))
#loc538 = loc("acc"(#loc251))
#loc539 = loc("l_i"(#loc251))
#loc540 = loc("m_i"(#loc251))
#loc541 = loc("q"(#loc251))
#loc542 = loc("q_pe"(#loc251))
#loc543 = loc("k_ptrs"(#loc251))
#loc544 = loc("k_pe_ptrs"(#loc251))
#loc545 = loc("v_ptrs"(#loc251))
#loc546 = loc("stride_kn"(#loc251))
#loc547 = loc("stride_vk"(#loc251))
#loc548 = loc("stride_sn"(#loc251))
#loc549 = loc("start_m"(#loc251))
#loc550 = loc("seqlen_k"(#loc251))
#loc551 = loc("seqlen_q"(#loc251))
#loc552 = loc("dropout_p"(#loc251))
#loc553 = loc("philox_seed"(#loc251))
#loc554 = loc("block_min"(#loc251))
#loc555 = loc("block_max"(#loc251))
#loc556 = loc("descale_q"(#loc251))
#loc557 = loc("descale_k"(#loc251))
#loc558 = loc("descale_v"(#loc251))
#loc559 = loc("OFFS_M"(#loc251))
#loc560 = loc("OFFS_N"(#loc251))
#loc561 = loc("SM_SCALE"(#loc251))
#loc600 = loc("ptrs"(#loc291))
#loc601 = loc("boundary_second"(#loc291))
#loc603 = loc("boundary_first"(#loc291))
#loc604 = loc("input"(#loc294))
#loc605 = loc("a"(#loc298))
#loc606 = loc("b"(#loc298))
#loc607 = loc("input"(#loc301))
#loc608 = loc("a"(#loc304))
#loc609 = loc("b"(#loc304))
#loc610 = loc("offs_n_causal"(#loc251))
#loc611 = loc("masked_blocks"(#loc251))
#loc612 = loc("n_extra_tokens"(#loc251))
#loc626 = loc("offset_second"(#loc291))
#loc629 = loc("offset_first"(#loc291))
module {
  tt.func public @_attn_fwd_IS_CAUSAL_1_NUM_Q_HEADS_128_NUM_K_HEADS_128_BLOCK_M_128_BLOCK_N_32_BLOCK_DMODEL_128_RETURN_SCORES_0_ENABLE_DROPOUT_0_IS_FP8_0_VARLEN_0_NUM_XCD_8_USE_INT64_STRIDES_1_ENABLE_SINK_0(%q_ptr: !tt.ptr<bf16> {tt.divisibility = 16 : i32, tt.pointer_range = 32 : i32} loc("q_ptr"(#loc)), %k_ptr: !tt.ptr<bf16> {tt.divisibility = 16 : i32, tt.pointer_range = 32 : i32} loc("k_ptr"(#loc)), %v_ptr: !tt.ptr<bf16> {tt.divisibility = 16 : i32, tt.pointer_range = 32 : i32} loc("v_ptr"(#loc)), %out_ptr: !tt.ptr<bf16> {tt.divisibility = 16 : i32, tt.pointer_range = 32 : i32} loc("out_ptr"(#loc)), %softmax_lse_ptr: !tt.ptr<f32> {tt.divisibility = 16 : i32, tt.pointer_range = 32 : i32} loc("softmax_lse_ptr"(#loc)), %stride_qz_in: i32 {tt.divisibility = 16 : i32} loc("stride_qz_in"(#loc)), %stride_qh_in: i32 {tt.divisibility = 16 : i32} loc("stride_qh_in"(#loc)), %stride_qm_in: i32 {tt.divisibility = 16 : i32} loc("stride_qm_in"(#loc)), %stride_kz_in: i32 {tt.divisibility = 16 : i32} loc("stride_kz_in"(#loc)), %stride_kh_in: i32 {tt.divisibility = 16 : i32} loc("stride_kh_in"(#loc)), %stride_kn_in: i32 {tt.divisibility = 16 : i32} loc("stride_kn_in"(#loc)), %stride_vz_in: i32 {tt.divisibility = 16 : i32} loc("stride_vz_in"(#loc)), %stride_vh_in: i32 {tt.divisibility = 16 : i32} loc("stride_vh_in"(#loc)), %stride_vn_in: i32 {tt.divisibility = 16 : i32} loc("stride_vn_in"(#loc)), %stride_descale_q_z_in: i32 {tt.divisibility = 16 : i32} loc("stride_descale_q_z_in"(#loc)), %stride_descale_k_z_in: i32 {tt.divisibility = 16 : i32} loc("stride_descale_k_z_in"(#loc)), %stride_descale_v_z_in: i32 {tt.divisibility = 16 : i32} loc("stride_descale_v_z_in"(#loc)), %stride_oz_in: i32 {tt.divisibility = 16 : i32} loc("stride_oz_in"(#loc)), %stride_oh_in: i32 {tt.divisibility = 16 : i32} loc("stride_oh_in"(#loc)), %stride_om_in: i32 {tt.divisibility = 16 : i32} loc("stride_om_in"(#loc)), %stride_alibi_z_in: i32 {tt.divisibility = 16 : i32} loc("stride_alibi_z_in"(#loc)), %stride_alibi_h_in: i32 {tt.divisibility = 16 : i32} loc("stride_alibi_h_in"(#loc)), %stride_sd_z_in: i32 {tt.divisibility = 16 : i32} loc("stride_sd_z_in"(#loc)), %stride_sd_h_in: i32 {tt.divisibility = 16 : i32} loc("stride_sd_h_in"(#loc)), %stride_sd_m_in: i32 {tt.divisibility = 16 : i32} loc("stride_sd_m_in"(#loc)), %stride_sd_n_in: i32 {tt.divisibility = 16 : i32} loc("stride_sd_n_in"(#loc)), %stride_lse_z_in: i32 {tt.divisibility = 16 : i32} loc("stride_lse_z_in"(#loc)), %stride_lse_h_in: i32 {tt.divisibility = 16 : i32} loc("stride_lse_h_in"(#loc)), %sm_scale: f32 loc("sm_scale"(#loc)), %dropout_p: f32 loc("dropout_p"(#loc)), %philox_seed: i32 {tt.divisibility = 16 : i32} loc("philox_seed"(#loc)), %philox_offset_base_in: i32 {tt.divisibility = 16 : i32} loc("philox_offset_base_in"(#loc)), %SEQLEN_Q: i32 {tt.divisibility = 16 : i32} loc("SEQLEN_Q"(#loc)), %SEQLEN_K: i32 {tt.divisibility = 16 : i32} loc("SEQLEN_K"(#loc))) attributes {noinline = false} {
    %NUM_BLOCKS = arith.constant 128 : i32 loc(#loc358)
    %NUM_BLOCKS_0 = arith.constant 128 : i32 loc(#loc358)
    %NUM_BLOCKS_1 = arith.extsi %SEQLEN_Q : i32 to i64 loc(#loc358)
    %NUM_BLOCKS_2 = arith.extsi %NUM_BLOCKS_0 : i32 to i64 loc(#loc358)
    %NUM_BLOCKS_3 = arith.addi %NUM_BLOCKS_1, %NUM_BLOCKS_2 : i64 loc(#loc358)
    %NUM_BLOCKS_4 = arith.constant 2147483647 : i64 loc(#loc358)
    %NUM_BLOCKS_5 = arith.constant -2147483648 : i64 loc(#loc358)
    %NUM_BLOCKS_6 = arith.cmpi sle, %NUM_BLOCKS_3, %NUM_BLOCKS_4 : i64 loc(#loc358)
    %NUM_BLOCKS_7 = arith.cmpi sge, %NUM_BLOCKS_3, %NUM_BLOCKS_5 : i64 loc(#loc358)
    %NUM_BLOCKS_8 = arith.andi %NUM_BLOCKS_6, %NUM_BLOCKS_7 : i1 loc(#loc358)
    %NUM_BLOCKS_9 = arith.addi %SEQLEN_Q, %NUM_BLOCKS_0 : i32 loc(#loc358)
    %NUM_BLOCKS_10 = arith.constant 1 : i32 loc(#loc358)
    %NUM_BLOCKS_11 = arith.constant 1 : i32 loc(#loc358)
    %NUM_BLOCKS_12 = arith.extsi %NUM_BLOCKS_9 : i32 to i64 loc(#loc358)
    %NUM_BLOCKS_13 = arith.extsi %NUM_BLOCKS_11 : i32 to i64 loc(#loc358)
    %NUM_BLOCKS_14 = arith.subi %NUM_BLOCKS_12, %NUM_BLOCKS_13 : i64 loc(#loc358)
    %NUM_BLOCKS_15 = arith.constant 2147483647 : i64 loc(#loc358)
    %NUM_BLOCKS_16 = arith.constant -2147483648 : i64 loc(#loc358)
    %NUM_BLOCKS_17 = arith.cmpi sle, %NUM_BLOCKS_14, %NUM_BLOCKS_15 : i64 loc(#loc358)
    %NUM_BLOCKS_18 = arith.cmpi sge, %NUM_BLOCKS_14, %NUM_BLOCKS_16 : i64 loc(#loc358)
    %NUM_BLOCKS_19 = arith.andi %NUM_BLOCKS_17, %NUM_BLOCKS_18 : i1 loc(#loc358)
    %NUM_BLOCKS_20 = arith.subi %NUM_BLOCKS_9, %NUM_BLOCKS_11 : i32 loc(#loc358)
    %NUM_BLOCKS_21 = arith.constant 128 : i32 loc(#loc359)
    %NUM_BLOCKS_22 = arith.constant 128 : i32 loc(#loc359)
    %NUM_BLOCKS_23 = arith.divsi %NUM_BLOCKS_20, %NUM_BLOCKS_22 : i32 loc(#loc359)
    %wid = tt.get_program_id x : i32 loc(#loc360)
    %off_q_head = arith.constant 128 : i32 loc(#loc361)
    %off_q_head_24 = arith.constant 128 : i32 loc(#loc361)
    %off_q_head_25 = arith.remsi %wid, %off_q_head_24 : i32 loc(#loc361)
    %off_q_head_26 = tt.call @aiter.ops.triton.utils._triton.pid_preprocessing.remap_xcd__i32_c128_c8(%off_q_head_25) : (i32) -> i32 loc(#loc362)
    %start_m = arith.constant 128 : i32 loc(#loc363)
    %start_m_27 = arith.constant 128 : i32 loc(#loc363)
    %start_m_28 = arith.divsi %wid, %start_m_27 : i32 loc(#loc363)
    %start_m_29 = arith.remsi %start_m_28, %NUM_BLOCKS_23 : i32 loc(#loc364)
    %off_z = arith.constant 128 : i32 loc(#loc365)
    %off_z_30 = arith.constant 128 : i32 loc(#loc365)
    %off_z_31 = arith.extsi %NUM_BLOCKS_23 : i32 to i64 loc(#loc365)
    %off_z_32 = arith.extsi %off_z_30 : i32 to i64 loc(#loc365)
    %off_z_33 = arith.muli %off_z_31, %off_z_32 : i64 loc(#loc365)
    %off_z_34 = arith.constant 2147483647 : i64 loc(#loc365)
    %off_z_35 = arith.constant -2147483648 : i64 loc(#loc365)
    %off_z_36 = arith.cmpi sle, %off_z_33, %off_z_34 : i64 loc(#loc365)
    %off_z_37 = arith.cmpi sge, %off_z_33, %off_z_35 : i64 loc(#loc365)
    %off_z_38 = arith.andi %off_z_36, %off_z_37 : i1 loc(#loc365)
    %off_z_39 = arith.muli %NUM_BLOCKS_23, %off_z_30 : i32 loc(#loc365)
    %off_z_40 = arith.divsi %wid, %off_z_39 : i32 loc(#loc366)
    %off_z_41 = arith.constant 1 : i32 loc(#loc367)
    %off_z_42 = arith.constant 1 : i32 loc(#loc367)
    %off_z_43 = arith.remsi %off_z_40, %off_z_42 : i32 loc(#loc367)
    %offs_m = arith.constant 128 : i32 loc(#loc368)
    %offs_m_44 = arith.constant 128 : i32 loc(#loc368)
    %offs_m_45 = arith.extsi %start_m_29 : i32 to i64 loc(#loc368)
    %offs_m_46 = arith.extsi %offs_m_44 : i32 to i64 loc(#loc368)
    %offs_m_47 = arith.muli %offs_m_45, %offs_m_46 : i64 loc(#loc368)
    %offs_m_48 = arith.constant 2147483647 : i64 loc(#loc368)
    %offs_m_49 = arith.constant -2147483648 : i64 loc(#loc368)
    %offs_m_50 = arith.cmpi sle, %offs_m_47, %offs_m_48 : i64 loc(#loc368)
    %offs_m_51 = arith.cmpi sge, %offs_m_47, %offs_m_49 : i64 loc(#loc368)
    %offs_m_52 = arith.andi %offs_m_50, %offs_m_51 : i1 loc(#loc368)
    %offs_m_53 = arith.muli %start_m_29, %offs_m_44 : i32 loc(#loc368)
    %offs_m_54 = tt.make_range {end = 128 : i32, start = 0 : i32} : tensor<128xi32> loc(#loc369)
    %offs_m_55 = tt.splat %offs_m_53 : i32 -> tensor<128xi32> loc(#loc368)
    %offs_m_56 = arith.extsi %offs_m_55 : tensor<128xi32> to tensor<128xi64> loc(#loc368)
    %offs_m_57 = arith.extsi %offs_m_54 : tensor<128xi32> to tensor<128xi64> loc(#loc368)
    %offs_m_58 = arith.addi %offs_m_56, %offs_m_57 : tensor<128xi64> loc(#loc368)
    %offs_m_59 = arith.constant 2147483647 : i64 loc(#loc368)
    %offs_m_60 = arith.constant -2147483648 : i64 loc(#loc368)
    %offs_m_61 = arith.constant dense<2147483647> : tensor<128xi64> loc(#loc368)
    %offs_m_62 = arith.cmpi sle, %offs_m_58, %offs_m_61 : tensor<128xi64> loc(#loc368)
    %offs_m_63 = arith.constant dense<-2147483648> : tensor<128xi64> loc(#loc368)
    %offs_m_64 = arith.cmpi sge, %offs_m_58, %offs_m_63 : tensor<128xi64> loc(#loc368)
    %offs_m_65 = arith.andi %offs_m_62, %offs_m_64 : tensor<128xi1> loc(#loc368)
    %offs_m_66 = arith.addi %offs_m_55, %offs_m_54 : tensor<128xi32> loc(#loc368)
    %offs_n = tt.make_range {end = 32 : i32, start = 0 : i32} : tensor<32xi32> loc(#loc370)
    %offs_d = tt.make_range {end = 128 : i32, start = 0 : i32} : tensor<128xi32> loc(#loc371)
    %offs_pe = tt.make_range {end = 64 : i32, start = 0 : i32} : tensor<64xi32> loc(#loc372)
    %offs_pe_67 = arith.constant 128 : i32 loc(#loc373)
    %offs_pe_68 = arith.constant 128 : i32 loc(#loc373)
    %offs_pe_69 = arith.constant dense<128> : tensor<64xi32> loc(#loc373)
    %offs_pe_70 = arith.extsi %offs_pe_69 : tensor<64xi32> to tensor<64xi64> loc(#loc373)
    %offs_pe_71 = arith.extsi %offs_pe : tensor<64xi32> to tensor<64xi64> loc(#loc373)
    %offs_pe_72 = arith.addi %offs_pe_70, %offs_pe_71 : tensor<64xi64> loc(#loc373)
    %offs_pe_73 = arith.constant 2147483647 : i64 loc(#loc373)
    %offs_pe_74 = arith.constant -2147483648 : i64 loc(#loc373)
    %offs_pe_75 = arith.constant dense<2147483647> : tensor<64xi64> loc(#loc373)
    %offs_pe_76 = arith.cmpi sle, %offs_pe_72, %offs_pe_75 : tensor<64xi64> loc(#loc373)
    %offs_pe_77 = arith.constant dense<-2147483648> : tensor<64xi64> loc(#loc373)
    %offs_pe_78 = arith.cmpi sge, %offs_pe_72, %offs_pe_77 : tensor<64xi64> loc(#loc373)
    %offs_pe_79 = arith.andi %offs_pe_76, %offs_pe_78 : tensor<64xi1> loc(#loc373)
    %offs_pe_80 = arith.addi %offs_pe_69, %offs_pe : tensor<64xi32> loc(#loc373)
    %stride_qz = arith.extsi %stride_qz_in : i32 to i64 loc(#loc374)
    %stride_qh = arith.extsi %stride_qh_in : i32 to i64 loc(#loc375)
    %stride_qm = arith.extsi %stride_qm_in : i32 to i64 loc(#loc376)
    %stride_qk = arith.constant 1 : i32 loc(#loc377)
    %stride_qk_81 = arith.extsi %stride_qk : i32 to i64 loc(#loc377)
    %stride_kz = arith.extsi %stride_kz_in : i32 to i64 loc(#loc378)
    %stride_kh = arith.extsi %stride_kh_in : i32 to i64 loc(#loc379)
    %stride_kn = arith.extsi %stride_kn_in : i32 to i64 loc(#loc380)
    %stride_kk = arith.constant 1 : i32 loc(#loc381)
    %stride_kk_82 = arith.extsi %stride_kk : i32 to i64 loc(#loc381)
    %stride_vz = arith.extsi %stride_vz_in : i32 to i64 loc(#loc382)
    %stride_vh = arith.extsi %stride_vh_in : i32 to i64 loc(#loc383)
    %stride_vn = arith.extsi %stride_vn_in : i32 to i64 loc(#loc384)
    %stride_vk = arith.constant 1 : i32 loc(#loc385)
    %stride_vk_83 = arith.extsi %stride_vk : i32 to i64 loc(#loc385)
    %stride_oz = arith.extsi %stride_oz_in : i32 to i64 loc(#loc386)
    %stride_oh = arith.extsi %stride_oh_in : i32 to i64 loc(#loc387)
    %stride_om = arith.extsi %stride_om_in : i32 to i64 loc(#loc388)
    %stride_on = arith.constant 1 : i32 loc(#loc389)
    %stride_on_84 = arith.extsi %stride_on : i32 to i64 loc(#loc389)
    %stride_alibi_z = arith.extsi %stride_alibi_z_in : i32 to i64 loc(#loc390)
    %stride_alibi_h = arith.extsi %stride_alibi_h_in : i32 to i64 loc(#loc391)
    %philox_offset_base = arith.extsi %philox_offset_base_in : i32 to i64 loc(#loc392)
    %stride_sd_z = arith.extsi %stride_sd_z_in : i32 to i64 loc(#loc393)
    %stride_sd_h = arith.extsi %stride_sd_h_in : i32 to i64 loc(#loc394)
    %stride_sd_m = arith.extsi %stride_sd_m_in : i32 to i64 loc(#loc395)
    %stride_sd_n = arith.extsi %stride_sd_n_in : i32 to i64 loc(#loc396)
    %stride_lse_z = arith.extsi %stride_lse_z_in : i32 to i64 loc(#loc397)
    %stride_lse_h = arith.extsi %stride_lse_h_in : i32 to i64 loc(#loc398)
    %stride_lse_m = arith.constant 1 : i32 loc(#loc399)
    %stride_lse_m_85 = arith.extsi %stride_lse_m : i32 to i64 loc(#loc399)
    %c0_i32 = arith.constant 0 : i32 loc(#loc43)
    %0 = arith.cmpi sge, %stride_qz_in, %c0_i32 : i32 loc(#loc43)
    llvm.intr.assume %0 : i1 loc(#loc44)
    %c0_i32_86 = arith.constant 0 : i32 loc(#loc45)
    %1 = arith.cmpi sge, %stride_qh_in, %c0_i32_86 : i32 loc(#loc45)
    llvm.intr.assume %1 : i1 loc(#loc46)
    %c0_i32_87 = arith.constant 0 : i32 loc(#loc47)
    %2 = arith.cmpi sge, %stride_qm_in, %c0_i32_87 : i32 loc(#loc47)
    llvm.intr.assume %2 : i1 loc(#loc48)
    %true = arith.constant true loc(#loc49)
    llvm.intr.assume %true : i1 loc(#loc49)
    %c0_i32_88 = arith.constant 0 : i32 loc(#loc50)
    %3 = arith.cmpi sge, %stride_kz_in, %c0_i32_88 : i32 loc(#loc50)
    llvm.intr.assume %3 : i1 loc(#loc51)
    %c0_i32_89 = arith.constant 0 : i32 loc(#loc52)
    %4 = arith.cmpi sge, %stride_kh_in, %c0_i32_89 : i32 loc(#loc52)
    llvm.intr.assume %4 : i1 loc(#loc53)
    %c0_i32_90 = arith.constant 0 : i32 loc(#loc54)
    %5 = arith.cmpi sge, %stride_kn_in, %c0_i32_90 : i32 loc(#loc54)
    llvm.intr.assume %5 : i1 loc(#loc55)
    %true_91 = arith.constant true loc(#loc56)
    llvm.intr.assume %true_91 : i1 loc(#loc56)
    %c0_i32_92 = arith.constant 0 : i32 loc(#loc57)
    %6 = arith.cmpi sge, %stride_vz_in, %c0_i32_92 : i32 loc(#loc57)
    llvm.intr.assume %6 : i1 loc(#loc58)
    %c0_i32_93 = arith.constant 0 : i32 loc(#loc59)
    %7 = arith.cmpi sge, %stride_vh_in, %c0_i32_93 : i32 loc(#loc59)
    llvm.intr.assume %7 : i1 loc(#loc60)
    %c0_i32_94 = arith.constant 0 : i32 loc(#loc61)
    %8 = arith.cmpi sge, %stride_vn_in, %c0_i32_94 : i32 loc(#loc61)
    llvm.intr.assume %8 : i1 loc(#loc62)
    %true_95 = arith.constant true loc(#loc63)
    llvm.intr.assume %true_95 : i1 loc(#loc63)
    %c0_i32_96 = arith.constant 0 : i32 loc(#loc64)
    %9 = arith.cmpi sge, %philox_offset_base_in, %c0_i32_96 : i32 loc(#loc64)
    llvm.intr.assume %9 : i1 loc(#loc65)
    %c0_i32_97 = arith.constant 0 : i32 loc(#loc66)
    %10 = arith.cmpi sge, %stride_sd_z_in, %c0_i32_97 : i32 loc(#loc66)
    llvm.intr.assume %10 : i1 loc(#loc67)
    %c0_i32_98 = arith.constant 0 : i32 loc(#loc68)
    %11 = arith.cmpi sge, %stride_sd_h_in, %c0_i32_98 : i32 loc(#loc68)
    llvm.intr.assume %11 : i1 loc(#loc69)
    %c0_i32_99 = arith.constant 0 : i32 loc(#loc70)
    %12 = arith.cmpi sge, %stride_sd_m_in, %c0_i32_99 : i32 loc(#loc70)
    llvm.intr.assume %12 : i1 loc(#loc71)
    %c0_i32_100 = arith.constant 0 : i32 loc(#loc72)
    %13 = arith.cmpi sge, %stride_sd_n_in, %c0_i32_100 : i32 loc(#loc72)
    llvm.intr.assume %13 : i1 loc(#loc73)
    %c0_i32_101 = arith.constant 0 : i32 loc(#loc74)
    %14 = arith.cmpi sge, %stride_lse_z_in, %c0_i32_101 : i32 loc(#loc74)
    llvm.intr.assume %14 : i1 loc(#loc75)
    %c0_i32_102 = arith.constant 0 : i32 loc(#loc76)
    %15 = arith.cmpi sge, %stride_lse_h_in, %c0_i32_102 : i32 loc(#loc76)
    llvm.intr.assume %15 : i1 loc(#loc77)
    %true_103 = arith.constant true loc(#loc78)
    llvm.intr.assume %true_103 : i1 loc(#loc78)
    %cu_seqlens_q_start = arith.constant 0 : i32 loc(#loc400)
    %cu_seqlens_k_start = arith.constant 0 : i32 loc(#loc401)
    %n_blocks = tt.call @aiter.ops.triton._triton_kernels.attention.mha._cdiv_fn__i32_c32(%SEQLEN_K) : (i32) -> i32 loc(#loc402)
    %n_blocks_seqlen = arith.constant 1 : i32 loc(#loc403)
    %n_blocks_seqlen_104 = arith.constant 1 : i32 loc(#loc403)
    %n_blocks_seqlen_105 = arith.extsi %start_m_29 : i32 to i64 loc(#loc403)
    %n_blocks_seqlen_106 = arith.extsi %n_blocks_seqlen_104 : i32 to i64 loc(#loc403)
    %n_blocks_seqlen_107 = arith.addi %n_blocks_seqlen_105, %n_blocks_seqlen_106 : i64 loc(#loc403)
    %n_blocks_seqlen_108 = arith.constant 2147483647 : i64 loc(#loc403)
    %n_blocks_seqlen_109 = arith.constant -2147483648 : i64 loc(#loc403)
    %n_blocks_seqlen_110 = arith.cmpi sle, %n_blocks_seqlen_107, %n_blocks_seqlen_108 : i64 loc(#loc403)
    %n_blocks_seqlen_111 = arith.cmpi sge, %n_blocks_seqlen_107, %n_blocks_seqlen_109 : i64 loc(#loc403)
    %n_blocks_seqlen_112 = arith.andi %n_blocks_seqlen_110, %n_blocks_seqlen_111 : i1 loc(#loc403)
    %n_blocks_seqlen_113 = arith.addi %start_m_29, %n_blocks_seqlen_104 : i32 loc(#loc403)
    %n_blocks_seqlen_114 = arith.constant 128 : i32 loc(#loc404)
    %n_blocks_seqlen_115 = arith.constant 128 : i32 loc(#loc404)
    %n_blocks_seqlen_116 = arith.extsi %n_blocks_seqlen_113 : i32 to i64 loc(#loc404)
    %n_blocks_seqlen_117 = arith.extsi %n_blocks_seqlen_115 : i32 to i64 loc(#loc404)
    %n_blocks_seqlen_118 = arith.muli %n_blocks_seqlen_116, %n_blocks_seqlen_117 : i64 loc(#loc404)
    %n_blocks_seqlen_119 = arith.constant 2147483647 : i64 loc(#loc404)
    %n_blocks_seqlen_120 = arith.constant -2147483648 : i64 loc(#loc404)
    %n_blocks_seqlen_121 = arith.cmpi sle, %n_blocks_seqlen_118, %n_blocks_seqlen_119 : i64 loc(#loc404)
    %n_blocks_seqlen_122 = arith.cmpi sge, %n_blocks_seqlen_118, %n_blocks_seqlen_120 : i64 loc(#loc404)
    %n_blocks_seqlen_123 = arith.andi %n_blocks_seqlen_121, %n_blocks_seqlen_122 : i1 loc(#loc404)
    %n_blocks_seqlen_124 = arith.muli %n_blocks_seqlen_113, %n_blocks_seqlen_115 : i32 loc(#loc404)
    %n_blocks_seqlen_125 = arith.extsi %n_blocks_seqlen_124 : i32 to i64 loc(#loc404)
    %n_blocks_seqlen_126 = arith.extsi %SEQLEN_K : i32 to i64 loc(#loc404)
    %n_blocks_seqlen_127 = arith.addi %n_blocks_seqlen_125, %n_blocks_seqlen_126 : i64 loc(#loc404)
    %n_blocks_seqlen_128 = arith.constant 2147483647 : i64 loc(#loc404)
    %n_blocks_seqlen_129 = arith.constant -2147483648 : i64 loc(#loc404)
    %n_blocks_seqlen_130 = arith.cmpi sle, %n_blocks_seqlen_127, %n_blocks_seqlen_128 : i64 loc(#loc404)
    %n_blocks_seqlen_131 = arith.cmpi sge, %n_blocks_seqlen_127, %n_blocks_seqlen_129 : i64 loc(#loc404)
    %n_blocks_seqlen_132 = arith.andi %n_blocks_seqlen_130, %n_blocks_seqlen_131 : i1 loc(#loc404)
    %n_blocks_seqlen_133 = arith.addi %n_blocks_seqlen_124, %SEQLEN_K : i32 loc(#loc404)
    %n_blocks_seqlen_134 = arith.extsi %n_blocks_seqlen_133 : i32 to i64 loc(#loc404)
    %n_blocks_seqlen_135 = arith.extsi %SEQLEN_Q : i32 to i64 loc(#loc404)
    %n_blocks_seqlen_136 = arith.subi %n_blocks_seqlen_134, %n_blocks_seqlen_135 : i64 loc(#loc404)
    %n_blocks_seqlen_137 = arith.constant 2147483647 : i64 loc(#loc404)
    %n_blocks_seqlen_138 = arith.constant -2147483648 : i64 loc(#loc404)
    %n_blocks_seqlen_139 = arith.cmpi sle, %n_blocks_seqlen_136, %n_blocks_seqlen_137 : i64 loc(#loc404)
    %n_blocks_seqlen_140 = arith.cmpi sge, %n_blocks_seqlen_136, %n_blocks_seqlen_138 : i64 loc(#loc404)
    %n_blocks_seqlen_141 = arith.andi %n_blocks_seqlen_139, %n_blocks_seqlen_140 : i1 loc(#loc404)
    %n_blocks_seqlen_142 = arith.subi %n_blocks_seqlen_133, %SEQLEN_Q : i32 loc(#loc404)
    %n_blocks_seqlen_143 = tt.call @aiter.ops.triton._triton_kernels.attention.mha._cdiv_fn__i32_c32(%n_blocks_seqlen_142) : (i32) -> i32 loc(#loc405)
    %n_blocks_144 = arith.minsi %n_blocks, %n_blocks_seqlen_143 : i32 loc(#loc406)
    %c0_i32_145 = arith.constant 0 : i32 loc(#loc86)
    %16 = arith.cmpi sle, %n_blocks_144, %c0_i32_145 : i32 loc(#loc86)
    cf.cond_br %16, ^bb1, ^bb2 loc(#loc86)
  ^bb1:  // pred: ^bb0
    %offs_out = arith.extsi %off_z_43 : i32 to i64 loc(#loc407)
    %offs_out_146 = arith.muli %offs_out, %stride_oz : i64 loc(#loc407)
    %offs_out_147 = arith.extsi %off_q_head_26 : i32 to i64 loc(#loc408)
    %offs_out_148 = arith.muli %offs_out_147, %stride_oh : i64 loc(#loc408)
    %offs_out_149 = arith.addi %offs_out_146, %offs_out_148 : i64 loc(#loc407)
    %offs_out_150 = arith.extsi %cu_seqlens_q_start : i32 to i64 loc(#loc409)
    %offs_out_151 = arith.muli %offs_out_150, %stride_om : i64 loc(#loc409)
    %offs_out_152 = arith.addi %offs_out_149, %offs_out_151 : i64 loc(#loc407)
    %offs_out_153 = tt.expand_dims %offs_m_66 {axis = 1 : i32} : tensor<128xi32> -> tensor<128x1xi32> loc(#loc410)
    %offs_out_154 = arith.extsi %offs_out_153 : tensor<128x1xi32> to tensor<128x1xi64> loc(#loc410)
    %offs_out_155 = tt.splat %stride_om : i64 -> tensor<128x1xi64> loc(#loc410)
    %offs_out_156 = arith.muli %offs_out_154, %offs_out_155 : tensor<128x1xi64> loc(#loc410)
    %offs_out_157 = tt.splat %offs_out_152 : i64 -> tensor<128x1xi64> loc(#loc407)
    %offs_out_158 = arith.addi %offs_out_157, %offs_out_156 : tensor<128x1xi64> loc(#loc407)
    %offs_out_159 = tt.expand_dims %offs_d {axis = 0 : i32} : tensor<128xi32> -> tensor<1x128xi32> loc(#loc411)
    %offs_out_160 = arith.extsi %offs_out_159 : tensor<1x128xi32> to tensor<1x128xi64> loc(#loc411)
    %offs_out_161 = tt.splat %stride_on_84 : i64 -> tensor<1x128xi64> loc(#loc411)
    %offs_out_162 = arith.muli %offs_out_160, %offs_out_161 : tensor<1x128xi64> loc(#loc411)
    %offs_out_163 = tt.broadcast %offs_out_158 : tensor<128x1xi64> -> tensor<128x128xi64> loc(#loc407)
    %offs_out_164 = tt.broadcast %offs_out_162 : tensor<1x128xi64> -> tensor<128x128xi64> loc(#loc407)
    %offs_out_165 = arith.addi %offs_out_163, %offs_out_164 : tensor<128x128xi64> loc(#loc407)
    %acc = tt.call @triton.language.standard.zeros__Tc128_c128T_cbf16() : () -> tensor<128x128xbf16> loc(#loc412)
    %out_mask = tt.expand_dims %offs_m_66 {axis = 1 : i32} : tensor<128xi32> -> tensor<128x1xi32> loc(#loc413)
    %out_mask_166 = tt.splat %SEQLEN_Q : i32 -> tensor<128x1xi32> loc(#loc413)
    %out_mask_167 = arith.cmpi slt, %out_mask, %out_mask_166 : tensor<128x1xi32> loc(#loc413)
    %out_mask_168 = tt.expand_dims %offs_d {axis = 0 : i32} : tensor<128xi32> -> tensor<1x128xi32> loc(#loc414)
    %out_mask_169 = arith.constant 128 : i32 loc(#loc414)
    %out_mask_170 = arith.constant dense<128> : tensor<1x128xi32> loc(#loc414)
    %out_mask_171 = arith.cmpi slt, %out_mask_168, %out_mask_170 : tensor<1x128xi32> loc(#loc414)
    %out_mask_172 = tt.broadcast %out_mask_167 : tensor<128x1xi1> -> tensor<128x128xi1> loc(#loc415)
    %out_mask_173 = tt.broadcast %out_mask_171 : tensor<1x128xi1> -> tensor<128x128xi1> loc(#loc415)
    %out_mask_174 = arith.andi %out_mask_172, %out_mask_173 : tensor<128x128xi1> loc(#loc415)
    %17 = tt.splat %out_ptr : !tt.ptr<bf16> -> tensor<128x128x!tt.ptr<bf16>> loc(#loc96)
    %18 = tt.addptr %17, %offs_out_165 : tensor<128x128x!tt.ptr<bf16>>, tensor<128x128xi64> loc(#loc96)
    tt.store %18, %acc, %out_mask_174 : tensor<128x128x!tt.ptr<bf16>> loc(#loc97)
    %offs_lse = arith.extsi %off_z_43 : i32 to i64 loc(#loc416)
    %offs_lse_175 = arith.muli %offs_lse, %stride_lse_z : i64 loc(#loc416)
    %offs_lse_176 = arith.extsi %off_q_head_26 : i32 to i64 loc(#loc417)
    %offs_lse_177 = arith.muli %offs_lse_176, %stride_lse_h : i64 loc(#loc417)
    %offs_lse_178 = arith.addi %offs_lse_175, %offs_lse_177 : i64 loc(#loc416)
    %offs_lse_179 = arith.extsi %cu_seqlens_q_start : i32 to i64 loc(#loc418)
    %offs_lse_180 = arith.muli %offs_lse_179, %stride_lse_m_85 : i64 loc(#loc418)
    %offs_lse_181 = arith.addi %offs_lse_178, %offs_lse_180 : i64 loc(#loc416)
    %offs_lse_182 = arith.extsi %offs_m_66 : tensor<128xi32> to tensor<128xi64> loc(#loc419)
    %offs_lse_183 = tt.splat %stride_lse_m_85 : i64 -> tensor<128xi64> loc(#loc419)
    %offs_lse_184 = arith.muli %offs_lse_182, %offs_lse_183 : tensor<128xi64> loc(#loc419)
    %offs_lse_185 = tt.splat %offs_lse_181 : i64 -> tensor<128xi64> loc(#loc416)
    %offs_lse_186 = arith.addi %offs_lse_185, %offs_lse_184 : tensor<128xi64> loc(#loc416)
    %lse_mask = tt.splat %SEQLEN_Q : i32 -> tensor<128xi32> loc(#loc420)
    %lse_mask_187 = arith.cmpi slt, %offs_m_66, %lse_mask : tensor<128xi32> loc(#loc420)
    %lse = arith.constant 0.000000e+00 : f32 loc(#loc421)
    %lse_188 = arith.constant dense<0.000000e+00> : tensor<128xf32> loc(#loc421)
    %19 = tt.splat %softmax_lse_ptr : !tt.ptr<f32> -> tensor<128x!tt.ptr<f32>> loc(#loc104)
    %20 = tt.addptr %19, %offs_lse_186 : tensor<128x!tt.ptr<f32>>, tensor<128xi64> loc(#loc104)
    tt.store %20, %lse_188, %lse_mask_187 : tensor<128x!tt.ptr<f32>> loc(#loc105)
    tt.return loc(#loc106)
  ^bb2:  // pred: ^bb0
    cf.br ^bb4 loc(#loc)
  ^bb3:  // no predecessors
    cf.br ^bb4 loc(#loc)
  ^bb4:  // 2 preds: ^bb2, ^bb3
    %q_offs = arith.extsi %off_z_43 : i32 to i64 loc(#loc422)
    %q_offs_189 = arith.muli %q_offs, %stride_qz : i64 loc(#loc422)
    %q_offs_190 = arith.extsi %off_q_head_26 : i32 to i64 loc(#loc423)
    %q_offs_191 = arith.muli %q_offs_190, %stride_qh : i64 loc(#loc423)
    %q_offs_192 = arith.addi %q_offs_189, %q_offs_191 : i64 loc(#loc422)
    %q_offs_193 = arith.extsi %cu_seqlens_q_start : i32 to i64 loc(#loc424)
    %q_offs_194 = arith.muli %q_offs_193, %stride_qm : i64 loc(#loc424)
    %q_offs_195 = arith.addi %q_offs_192, %q_offs_194 : i64 loc(#loc422)
    %q_offs_196 = tt.expand_dims %offs_m_66 {axis = 1 : i32} : tensor<128xi32> -> tensor<128x1xi32> loc(#loc425)
    %q_offs_197 = arith.extsi %q_offs_196 : tensor<128x1xi32> to tensor<128x1xi64> loc(#loc425)
    %q_offs_198 = tt.splat %stride_qm : i64 -> tensor<128x1xi64> loc(#loc425)
    %q_offs_199 = arith.muli %q_offs_197, %q_offs_198 : tensor<128x1xi64> loc(#loc425)
    %q_offs_200 = tt.splat %q_offs_195 : i64 -> tensor<128x1xi64> loc(#loc422)
    %q_offs_201 = arith.addi %q_offs_200, %q_offs_199 : tensor<128x1xi64> loc(#loc422)
    %q_offs_202 = tt.expand_dims %offs_d {axis = 0 : i32} : tensor<128xi32> -> tensor<1x128xi32> loc(#loc426)
    %q_offs_203 = arith.extsi %q_offs_202 : tensor<1x128xi32> to tensor<1x128xi64> loc(#loc426)
    %q_offs_204 = tt.splat %stride_qk_81 : i64 -> tensor<1x128xi64> loc(#loc426)
    %q_offs_205 = arith.muli %q_offs_203, %q_offs_204 : tensor<1x128xi64> loc(#loc426)
    %q_offs_206 = tt.broadcast %q_offs_201 : tensor<128x1xi64> -> tensor<128x128xi64> loc(#loc422)
    %q_offs_207 = tt.broadcast %q_offs_205 : tensor<1x128xi64> -> tensor<128x128xi64> loc(#loc422)
    %q_offs_208 = arith.addi %q_offs_206, %q_offs_207 : tensor<128x128xi64> loc(#loc422)
    %q_ptrs = tt.splat %q_ptr : !tt.ptr<bf16> -> tensor<128x128x!tt.ptr<bf16>> loc(#loc427)
    %q_ptrs_209 = tt.addptr %q_ptrs, %q_offs_208 : tensor<128x128x!tt.ptr<bf16>>, tensor<128x128xi64> loc(#loc427)
    %q_pe_offs = arith.extsi %off_z_43 : i32 to i64 loc(#loc428)
    %q_pe_offs_210 = arith.muli %q_pe_offs, %stride_qz : i64 loc(#loc428)
    %q_pe_offs_211 = arith.extsi %off_q_head_26 : i32 to i64 loc(#loc429)
    %q_pe_offs_212 = arith.muli %q_pe_offs_211, %stride_qh : i64 loc(#loc429)
    %q_pe_offs_213 = arith.addi %q_pe_offs_210, %q_pe_offs_212 : i64 loc(#loc428)
    %q_pe_offs_214 = arith.extsi %cu_seqlens_q_start : i32 to i64 loc(#loc430)
    %q_pe_offs_215 = arith.muli %q_pe_offs_214, %stride_qm : i64 loc(#loc430)
    %q_pe_offs_216 = arith.addi %q_pe_offs_213, %q_pe_offs_215 : i64 loc(#loc428)
    %q_pe_offs_217 = tt.expand_dims %offs_m_66 {axis = 1 : i32} : tensor<128xi32> -> tensor<128x1xi32> loc(#loc431)
    %q_pe_offs_218 = arith.extsi %q_pe_offs_217 : tensor<128x1xi32> to tensor<128x1xi64> loc(#loc431)
    %q_pe_offs_219 = tt.splat %stride_qm : i64 -> tensor<128x1xi64> loc(#loc431)
    %q_pe_offs_220 = arith.muli %q_pe_offs_218, %q_pe_offs_219 : tensor<128x1xi64> loc(#loc431)
    %q_pe_offs_221 = tt.splat %q_pe_offs_216 : i64 -> tensor<128x1xi64> loc(#loc428)
    %q_pe_offs_222 = arith.addi %q_pe_offs_221, %q_pe_offs_220 : tensor<128x1xi64> loc(#loc428)
    %q_pe_offs_223 = tt.expand_dims %offs_pe_80 {axis = 0 : i32} : tensor<64xi32> -> tensor<1x64xi32> loc(#loc432)
    %q_pe_offs_224 = arith.extsi %q_pe_offs_223 : tensor<1x64xi32> to tensor<1x64xi64> loc(#loc432)
    %q_pe_offs_225 = tt.splat %stride_qk_81 : i64 -> tensor<1x64xi64> loc(#loc432)
    %q_pe_offs_226 = arith.muli %q_pe_offs_224, %q_pe_offs_225 : tensor<1x64xi64> loc(#loc432)
    %q_pe_offs_227 = tt.broadcast %q_pe_offs_222 : tensor<128x1xi64> -> tensor<128x64xi64> loc(#loc428)
    %q_pe_offs_228 = tt.broadcast %q_pe_offs_226 : tensor<1x64xi64> -> tensor<128x64xi64> loc(#loc428)
    %q_pe_offs_229 = arith.addi %q_pe_offs_227, %q_pe_offs_228 : tensor<128x64xi64> loc(#loc428)
    %q_pe_ptrs = tt.splat %q_ptr : !tt.ptr<bf16> -> tensor<128x64x!tt.ptr<bf16>> loc(#loc433)
    %q_pe_ptrs_230 = tt.addptr %q_pe_ptrs, %q_pe_offs_229 : tensor<128x64x!tt.ptr<bf16>>, tensor<128x64xi64> loc(#loc433)
    %k_offs = arith.extsi %off_z_43 : i32 to i64 loc(#loc434)
    %k_offs_231 = arith.muli %k_offs, %stride_kz : i64 loc(#loc434)
    %k_offs_232 = arith.extsi %off_q_head_26 : i32 to i64 loc(#loc435)
    %k_offs_233 = arith.muli %k_offs_232, %stride_kh : i64 loc(#loc435)
    %k_offs_234 = arith.addi %k_offs_231, %k_offs_233 : i64 loc(#loc434)
    %k_offs_235 = arith.extsi %cu_seqlens_k_start : i32 to i64 loc(#loc436)
    %k_offs_236 = arith.muli %k_offs_235, %stride_kn : i64 loc(#loc436)
    %k_offs_237 = arith.addi %k_offs_234, %k_offs_236 : i64 loc(#loc434)
    %k_offs_238 = tt.expand_dims %offs_d {axis = 1 : i32} : tensor<128xi32> -> tensor<128x1xi32> loc(#loc437)
    %k_offs_239 = arith.extsi %k_offs_238 : tensor<128x1xi32> to tensor<128x1xi64> loc(#loc437)
    %k_offs_240 = tt.splat %stride_kk_82 : i64 -> tensor<128x1xi64> loc(#loc437)
    %k_offs_241 = arith.muli %k_offs_239, %k_offs_240 : tensor<128x1xi64> loc(#loc437)
    %k_offs_242 = tt.splat %k_offs_237 : i64 -> tensor<128x1xi64> loc(#loc434)
    %k_offs_243 = arith.addi %k_offs_242, %k_offs_241 : tensor<128x1xi64> loc(#loc434)
    %k_offs_244 = tt.expand_dims %offs_n {axis = 0 : i32} : tensor<32xi32> -> tensor<1x32xi32> loc(#loc438)
    %k_offs_245 = arith.extsi %k_offs_244 : tensor<1x32xi32> to tensor<1x32xi64> loc(#loc438)
    %k_offs_246 = tt.splat %stride_kn : i64 -> tensor<1x32xi64> loc(#loc438)
    %k_offs_247 = arith.muli %k_offs_245, %k_offs_246 : tensor<1x32xi64> loc(#loc438)
    %k_offs_248 = tt.broadcast %k_offs_243 : tensor<128x1xi64> -> tensor<128x32xi64> loc(#loc434)
    %k_offs_249 = tt.broadcast %k_offs_247 : tensor<1x32xi64> -> tensor<128x32xi64> loc(#loc434)
    %k_offs_250 = arith.addi %k_offs_248, %k_offs_249 : tensor<128x32xi64> loc(#loc434)
    %k_ptrs = tt.splat %k_ptr : !tt.ptr<bf16> -> tensor<128x32x!tt.ptr<bf16>> loc(#loc439)
    %k_ptrs_251 = tt.addptr %k_ptrs, %k_offs_250 : tensor<128x32x!tt.ptr<bf16>>, tensor<128x32xi64> loc(#loc632)
    %k_pe_offs = arith.extsi %off_z_43 : i32 to i64 loc(#loc440)
    %k_pe_offs_252 = arith.muli %k_pe_offs, %stride_kz : i64 loc(#loc440)
    %k_pe_offs_253 = arith.extsi %off_q_head_26 : i32 to i64 loc(#loc441)
    %k_pe_offs_254 = arith.muli %k_pe_offs_253, %stride_kh : i64 loc(#loc441)
    %k_pe_offs_255 = arith.addi %k_pe_offs_252, %k_pe_offs_254 : i64 loc(#loc440)
    %k_pe_offs_256 = arith.extsi %cu_seqlens_k_start : i32 to i64 loc(#loc442)
    %k_pe_offs_257 = arith.muli %k_pe_offs_256, %stride_kn : i64 loc(#loc442)
    %k_pe_offs_258 = arith.addi %k_pe_offs_255, %k_pe_offs_257 : i64 loc(#loc440)
    %k_pe_offs_259 = tt.expand_dims %offs_pe_80 {axis = 1 : i32} : tensor<64xi32> -> tensor<64x1xi32> loc(#loc443)
    %k_pe_offs_260 = arith.extsi %k_pe_offs_259 : tensor<64x1xi32> to tensor<64x1xi64> loc(#loc443)
    %k_pe_offs_261 = tt.splat %stride_kk_82 : i64 -> tensor<64x1xi64> loc(#loc443)
    %k_pe_offs_262 = arith.muli %k_pe_offs_260, %k_pe_offs_261 : tensor<64x1xi64> loc(#loc443)
    %k_pe_offs_263 = tt.splat %k_pe_offs_258 : i64 -> tensor<64x1xi64> loc(#loc440)
    %k_pe_offs_264 = arith.addi %k_pe_offs_263, %k_pe_offs_262 : tensor<64x1xi64> loc(#loc440)
    %k_pe_offs_265 = tt.expand_dims %offs_n {axis = 0 : i32} : tensor<32xi32> -> tensor<1x32xi32> loc(#loc444)
    %k_pe_offs_266 = arith.extsi %k_pe_offs_265 : tensor<1x32xi32> to tensor<1x32xi64> loc(#loc444)
    %k_pe_offs_267 = tt.splat %stride_kn : i64 -> tensor<1x32xi64> loc(#loc444)
    %k_pe_offs_268 = arith.muli %k_pe_offs_266, %k_pe_offs_267 : tensor<1x32xi64> loc(#loc444)
    %k_pe_offs_269 = tt.broadcast %k_pe_offs_264 : tensor<64x1xi64> -> tensor<64x32xi64> loc(#loc440)
    %k_pe_offs_270 = tt.broadcast %k_pe_offs_268 : tensor<1x32xi64> -> tensor<64x32xi64> loc(#loc440)
    %k_pe_offs_271 = arith.addi %k_pe_offs_269, %k_pe_offs_270 : tensor<64x32xi64> loc(#loc440)
    %k_pe_ptrs = tt.splat %k_ptr : !tt.ptr<bf16> -> tensor<64x32x!tt.ptr<bf16>> loc(#loc445)
    %k_pe_ptrs_272 = tt.addptr %k_pe_ptrs, %k_pe_offs_271 : tensor<64x32x!tt.ptr<bf16>>, tensor<64x32xi64> loc(#loc633)
    %v_offs = arith.extsi %off_z_43 : i32 to i64 loc(#loc446)
    %v_offs_273 = arith.muli %v_offs, %stride_vz : i64 loc(#loc446)
    %v_offs_274 = arith.extsi %off_q_head_26 : i32 to i64 loc(#loc447)
    %v_offs_275 = arith.muli %v_offs_274, %stride_vh : i64 loc(#loc447)
    %v_offs_276 = arith.addi %v_offs_273, %v_offs_275 : i64 loc(#loc446)
    %v_offs_277 = arith.extsi %cu_seqlens_k_start : i32 to i64 loc(#loc448)
    %v_offs_278 = arith.muli %v_offs_277, %stride_vn : i64 loc(#loc448)
    %v_offs_279 = arith.addi %v_offs_276, %v_offs_278 : i64 loc(#loc446)
    %v_offs_280 = tt.expand_dims %offs_n {axis = 1 : i32} : tensor<32xi32> -> tensor<32x1xi32> loc(#loc449)
    %v_offs_281 = arith.extsi %v_offs_280 : tensor<32x1xi32> to tensor<32x1xi64> loc(#loc449)
    %v_offs_282 = tt.splat %stride_vn : i64 -> tensor<32x1xi64> loc(#loc449)
    %v_offs_283 = arith.muli %v_offs_281, %v_offs_282 : tensor<32x1xi64> loc(#loc449)
    %v_offs_284 = tt.splat %v_offs_279 : i64 -> tensor<32x1xi64> loc(#loc446)
    %v_offs_285 = arith.addi %v_offs_284, %v_offs_283 : tensor<32x1xi64> loc(#loc446)
    %v_offs_286 = tt.expand_dims %offs_d {axis = 0 : i32} : tensor<128xi32> -> tensor<1x128xi32> loc(#loc450)
    %v_offs_287 = arith.extsi %v_offs_286 : tensor<1x128xi32> to tensor<1x128xi64> loc(#loc450)
    %v_offs_288 = tt.splat %stride_vk_83 : i64 -> tensor<1x128xi64> loc(#loc450)
    %v_offs_289 = arith.muli %v_offs_287, %v_offs_288 : tensor<1x128xi64> loc(#loc450)
    %v_offs_290 = tt.broadcast %v_offs_285 : tensor<32x1xi64> -> tensor<32x128xi64> loc(#loc446)
    %v_offs_291 = tt.broadcast %v_offs_289 : tensor<1x128xi64> -> tensor<32x128xi64> loc(#loc446)
    %v_offs_292 = arith.addi %v_offs_290, %v_offs_291 : tensor<32x128xi64> loc(#loc446)
    %v_ptrs = tt.splat %v_ptr : !tt.ptr<bf16> -> tensor<32x128x!tt.ptr<bf16>> loc(#loc451)
    %v_ptrs_293 = tt.addptr %v_ptrs, %v_offs_292 : tensor<32x128x!tt.ptr<bf16>>, tensor<32x128xi64> loc(#loc634)
    %m_i_value = arith.constant 0xFF800000 : f32 loc(#loc452)
    %m_i = arith.constant dense<0xFF800000> : tensor<128xf32> loc(#loc635)
    %l_i = arith.constant 1.000000e+00 : f32 loc(#loc454)
    %l_i_294 = arith.constant dense<1.000000e+00> : tensor<128xf32> loc(#loc636)
    %acc_295 = tt.call @triton.language.standard.zeros__Tc128_c128T_cfp32() : () -> tensor<128x128xf32> loc(#loc637)
    %q_mask = tt.expand_dims %offs_m_66 {axis = 1 : i32} : tensor<128xi32> -> tensor<128x1xi32> loc(#loc456)
    %q_mask_296 = tt.splat %SEQLEN_Q : i32 -> tensor<128x1xi32> loc(#loc456)
    %q_mask_297 = arith.cmpi slt, %q_mask, %q_mask_296 : tensor<128x1xi32> loc(#loc456)
    %q_pe = arith.constant 0.000000e+00 : f32 loc(#loc457)
    %q_pe_298 = tt.broadcast %q_mask_297 : tensor<128x1xi1> -> tensor<128x64xi1> loc(#loc457)
    %q_pe_299 = arith.constant dense<0.000000e+00> : tensor<128x64xf32> loc(#loc457)
    %q_pe_300 = arith.truncf %q_pe_299 : tensor<128x64xf32> to tensor<128x64xbf16> loc(#loc457)
    %q_pe_301 = tt.load %q_pe_ptrs_230, %q_pe_298, %q_pe_300 cacheModifier = cg : tensor<128x64x!tt.ptr<bf16>> loc(#loc457)
    %q = arith.constant 0.000000e+00 : f32 loc(#loc458)
    %q_302 = tt.broadcast %q_mask_297 : tensor<128x1xi1> -> tensor<128x128xi1> loc(#loc458)
    %q_303 = arith.constant dense<0.000000e+00> : tensor<128x128xf32> loc(#loc458)
    %q_304 = arith.truncf %q_303 : tensor<128x128xf32> to tensor<128x128xbf16> loc(#loc458)
    %q_305 = tt.load %q_ptrs_209, %q_302, %q_304 cacheModifier = cg : tensor<128x128x!tt.ptr<bf16>> loc(#loc458)
    %cst = arith.constant 1.000000e+00 : f32 loc(#loc144)
    %cst_306 = arith.constant 1.000000e+00 : f32 loc(#loc144)
    %cst_307 = arith.constant 1.000000e+00 : f32 loc(#loc144)
    %n_extra_tokens = arith.constant 0 : i32 loc(#loc638)
    %c32_i32 = arith.constant 32 : i32 loc(#loc146)
    %21 = arith.cmpi slt, %SEQLEN_K, %c32_i32 : i32 loc(#loc146)
    %22 = scf.if %21 -> (i32) {
      %n_extra_tokens_465 = arith.constant 32 : i32 loc(#loc460)
      %n_extra_tokens_466 = arith.constant 32 : i32 loc(#loc460)
      %n_extra_tokens_467 = arith.extsi %n_extra_tokens_466 : i32 to i64 loc(#loc460)
      %n_extra_tokens_468 = arith.extsi %SEQLEN_K : i32 to i64 loc(#loc460)
      %n_extra_tokens_469 = arith.subi %n_extra_tokens_467, %n_extra_tokens_468 : i64 loc(#loc460)
      %n_extra_tokens_470 = arith.constant 2147483647 : i64 loc(#loc460)
      %n_extra_tokens_471 = arith.constant -2147483648 : i64 loc(#loc460)
      %n_extra_tokens_472 = arith.cmpi sle, %n_extra_tokens_469, %n_extra_tokens_470 : i64 loc(#loc460)
      %n_extra_tokens_473 = arith.cmpi sge, %n_extra_tokens_469, %n_extra_tokens_471 : i64 loc(#loc460)
      %n_extra_tokens_474 = arith.andi %n_extra_tokens_472, %n_extra_tokens_473 : i1 loc(#loc460)
      %n_extra_tokens_475 = arith.subi %n_extra_tokens_466, %SEQLEN_K : i32 loc(#loc639)
      scf.yield %n_extra_tokens_475 : i32 loc(#loc639)
    } else {
      %c32_i32_465 = arith.constant 32 : i32 loc(#loc149)
      %c32_i32_466 = arith.constant 32 : i32 loc(#loc149)
      %36 = arith.remsi %SEQLEN_K, %c32_i32_466 : i32 loc(#loc149)
      %c0_i32_467 = arith.constant 0 : i32 loc(#loc150)
      %37 = arith.cmpi ne, %36, %c0_i32_467 : i32 loc(#loc150)
      %n_extra_tokens_468 = scf.if %37 -> (i32) {
        %n_extra_tokens_469 = arith.constant 32 : i32 loc(#loc462)
        %n_extra_tokens_470 = arith.constant 32 : i32 loc(#loc462)
        %n_extra_tokens_471 = arith.remsi %SEQLEN_K, %n_extra_tokens_470 : i32 loc(#loc640)
        scf.yield %n_extra_tokens_471 : i32 loc(#loc640)
      } else {
        scf.yield %n_extra_tokens : i32 loc(#loc150)
      } loc(#loc461)
      scf.yield %n_extra_tokens_468 : i32 loc(#loc150)
    } loc(#loc147)
    %padded_block_k = arith.constant 0 : i32 loc(#loc463)
    %padded_block_k_308 = arith.cmpi ne, %22, %padded_block_k : i32 loc(#loc463)
    %is_modulo_mn = arith.constant true loc(#loc464)
    %is_modulo_mn_309 = arith.xori %padded_block_k_308, %is_modulo_mn : i1 loc(#loc464)
    %is_modulo_mn_310 = arith.constant 128 : i32 loc(#loc465)
    %is_modulo_mn_311 = arith.constant 128 : i32 loc(#loc465)
    %is_modulo_mn_312 = arith.remsi %SEQLEN_Q, %is_modulo_mn_311 : i32 loc(#loc465)
    %is_modulo_mn_313 = arith.constant 0 : i32 loc(#loc465)
    %is_modulo_mn_314 = arith.cmpi eq, %is_modulo_mn_312, %is_modulo_mn_313 : i32 loc(#loc465)
    %is_modulo_mn_315 = arith.andi %is_modulo_mn_309, %is_modulo_mn_314 : i1 loc(#loc464)
    %masked_blocks = arith.constant true loc(#loc466)
    %masked_blocks_316 = arith.xori %is_modulo_mn_315, %masked_blocks : i1 loc(#loc466)
    %masked_blocks_317 = arith.constant 4 : i32 loc(#loc467)
    %masked_blocks_318 = arith.constant 4 : i32 loc(#loc467)
    %masked_blocks_319 = arith.extui %masked_blocks_316 : i1 to i32 loc(#loc467)
    %masked_blocks_320 = arith.extsi %masked_blocks_318 : i32 to i64 loc(#loc467)
    %masked_blocks_321 = arith.extsi %masked_blocks_319 : i32 to i64 loc(#loc467)
    %masked_blocks_322 = arith.addi %masked_blocks_320, %masked_blocks_321 : i64 loc(#loc467)
    %masked_blocks_323 = arith.constant 2147483647 : i64 loc(#loc467)
    %masked_blocks_324 = arith.constant -2147483648 : i64 loc(#loc467)
    %masked_blocks_325 = arith.cmpi sle, %masked_blocks_322, %masked_blocks_323 : i64 loc(#loc467)
    %masked_blocks_326 = arith.cmpi sge, %masked_blocks_322, %masked_blocks_324 : i64 loc(#loc467)
    %masked_blocks_327 = arith.andi %masked_blocks_325, %masked_blocks_326 : i1 loc(#loc467)
    %masked_blocks_328 = arith.addi %masked_blocks_318, %masked_blocks_319 : i32 loc(#loc467)
    %masked_blocks_329 = arith.minsi %masked_blocks_328, %n_blocks_144 : i32 loc(#loc468)
    %n_full_blocks = arith.extsi %n_blocks_144 : i32 to i64 loc(#loc469)
    %n_full_blocks_330 = arith.extsi %masked_blocks_329 : i32 to i64 loc(#loc469)
    %n_full_blocks_331 = arith.subi %n_full_blocks, %n_full_blocks_330 : i64 loc(#loc469)
    %n_full_blocks_332 = arith.constant 2147483647 : i64 loc(#loc469)
    %n_full_blocks_333 = arith.constant -2147483648 : i64 loc(#loc469)
    %n_full_blocks_334 = arith.cmpi sle, %n_full_blocks_331, %n_full_blocks_332 : i64 loc(#loc469)
    %n_full_blocks_335 = arith.cmpi sge, %n_full_blocks_331, %n_full_blocks_333 : i64 loc(#loc469)
    %n_full_blocks_336 = arith.andi %n_full_blocks_334, %n_full_blocks_335 : i1 loc(#loc469)
    %n_full_blocks_337 = arith.subi %n_blocks_144, %masked_blocks_329 : i32 loc(#loc469)
    %block_min = arith.constant 0 : i32 loc(#loc641)
    %block_max = arith.constant 32 : i32 loc(#loc471)
    %block_max_338 = arith.constant 32 : i32 loc(#loc471)
    %block_max_339 = arith.extsi %n_blocks_144 : i32 to i64 loc(#loc471)
    %block_max_340 = arith.extsi %block_max_338 : i32 to i64 loc(#loc471)
    %block_max_341 = arith.muli %block_max_339, %block_max_340 : i64 loc(#loc471)
    %block_max_342 = arith.constant 2147483647 : i64 loc(#loc471)
    %block_max_343 = arith.constant -2147483648 : i64 loc(#loc471)
    %block_max_344 = arith.cmpi sle, %block_max_341, %block_max_342 : i64 loc(#loc471)
    %block_max_345 = arith.cmpi sge, %block_max_341, %block_max_343 : i64 loc(#loc471)
    %block_max_346 = arith.andi %block_max_344, %block_max_345 : i1 loc(#loc471)
    %block_max_347 = arith.muli %n_blocks_144, %block_max_338 : i32 loc(#loc642)
    %c0_i32_348 = arith.constant 0 : i32 loc(#loc161)
    %23 = arith.cmpi sgt, %n_full_blocks_337, %c0_i32_348 : i32 loc(#loc161)
    %acc_349:5 = scf.if %23 -> (tensor<128xf32>, tensor<128xf32>, tensor<128x128xf32>, i32, i32) {
      %block_max_465 = arith.extsi %n_blocks_144 : i32 to i64 loc(#loc473)
      %block_max_466 = arith.extsi %masked_blocks_329 : i32 to i64 loc(#loc473)
      %block_max_467 = arith.subi %block_max_465, %block_max_466 : i64 loc(#loc473)
      %block_max_468 = arith.constant 2147483647 : i64 loc(#loc473)
      %block_max_469 = arith.constant -2147483648 : i64 loc(#loc473)
      %block_max_470 = arith.cmpi sle, %block_max_467, %block_max_468 : i64 loc(#loc473)
      %block_max_471 = arith.cmpi sge, %block_max_467, %block_max_469 : i64 loc(#loc473)
      %block_max_472 = arith.andi %block_max_470, %block_max_471 : i1 loc(#loc473)
      %block_max_473 = arith.subi %n_blocks_144, %masked_blocks_329 : i32 loc(#loc473)
      %block_max_474 = arith.constant 32 : i32 loc(#loc474)
      %block_max_475 = arith.constant 32 : i32 loc(#loc474)
      %block_max_476 = arith.extsi %block_max_473 : i32 to i64 loc(#loc474)
      %block_max_477 = arith.extsi %block_max_475 : i32 to i64 loc(#loc474)
      %block_max_478 = arith.muli %block_max_476, %block_max_477 : i64 loc(#loc474)
      %block_max_479 = arith.constant 2147483647 : i64 loc(#loc474)
      %block_max_480 = arith.constant -2147483648 : i64 loc(#loc474)
      %block_max_481 = arith.cmpi sle, %block_max_478, %block_max_479 : i64 loc(#loc474)
      %block_max_482 = arith.cmpi sge, %block_max_478, %block_max_480 : i64 loc(#loc474)
      %block_max_483 = arith.andi %block_max_481, %block_max_482 : i1 loc(#loc474)
      %block_min_484 = arith.muli %block_max_473, %block_max_475 : i32 loc(#loc644)
      %acc_485:3 = tt.call @"aiter.ops.triton._triton_kernels.attention.mha._attn_fwd_inner__fp32S128_128S_fp32S128S_fp32S128S_bf16S128_128S_bf16S128_64S_Pbf16S128_32S_Pbf16S64_32S_Pbf16S32_128S_i64_i64_i64_i32_i32_i32_fp32_cNone_cNone_i32_cNone_i32_i32_c0_c0_c0_cNone_fp32_fp32_fp32_i32S128S_i32S32S_cTrue_c128_c32_c128_c128_c64_fp32_cFalse_cFalse_cFalse_cFalse_cFalse_cFalse_c3.3895313892515355e+38_cTrue"(%acc_295, %l_i_294, %m_i, %q_305, %q_pe_301, %k_ptrs_251, %k_pe_ptrs_272, %v_ptrs_293, %stride_kn, %stride_vn, %stride_sd_n, %start_m_29, %SEQLEN_K, %SEQLEN_Q, %dropout_p, %philox_seed, %block_min, %block_min_484, %cst, %cst_306, %cst_307, %offs_m_66, %offs_n, %sm_scale) : (tensor<128x128xf32>, tensor<128xf32>, tensor<128xf32>, tensor<128x128xbf16>, tensor<128x64xbf16>, tensor<128x32x!tt.ptr<bf16>>, tensor<64x32x!tt.ptr<bf16>>, tensor<32x128x!tt.ptr<bf16>>, i64, i64, i64, i32, i32, i32, f32, i32, i32, i32, f32, f32, f32, tensor<128xi32>, tensor<32xi32>, f32) -> (tensor<128x128xf32>, tensor<128xf32>, tensor<128xf32>) loc(#loc659)
      %block_max_486 = arith.constant 32 : i32 loc(#loc476)
      %block_max_487 = arith.constant 32 : i32 loc(#loc476)
      %block_max_488 = arith.extsi %n_blocks_144 : i32 to i64 loc(#loc476)
      %block_max_489 = arith.extsi %block_max_487 : i32 to i64 loc(#loc476)
      %block_max_490 = arith.muli %block_max_488, %block_max_489 : i64 loc(#loc476)
      %block_max_491 = arith.constant 2147483647 : i64 loc(#loc476)
      %block_max_492 = arith.constant -2147483648 : i64 loc(#loc476)
      %block_max_493 = arith.cmpi sle, %block_max_490, %block_max_491 : i64 loc(#loc476)
      %block_max_494 = arith.cmpi sge, %block_max_490, %block_max_492 : i64 loc(#loc476)
      %block_max_495 = arith.andi %block_max_493, %block_max_494 : i1 loc(#loc476)
      %block_max_496 = arith.muli %n_blocks_144, %block_max_487 : i32 loc(#loc646)
      scf.yield %acc_485#2, %acc_485#1, %acc_485#0, %block_min_484, %block_max_496 : tensor<128xf32>, tensor<128xf32>, tensor<128x128xf32>, i32, i32 loc(#loc646)
    } else {
      scf.yield %m_i, %l_i_294, %acc_295, %block_min, %block_max_347 : tensor<128xf32>, tensor<128xf32>, tensor<128x128xf32>, i32, i32 loc(#loc162)
    } loc(#loc658)
    %c0_i32_350 = arith.constant 0 : i32 loc(#loc167)
    %24 = arith.cmpi sgt, %masked_blocks_329, %c0_i32_350 : i32 loc(#loc167)
    %25:6 = scf.if %24 -> (tensor<128x32x!tt.ptr<bf16>>, tensor<64x32x!tt.ptr<bf16>>, tensor<32x128x!tt.ptr<bf16>>, tensor<128xf32>, tensor<128xf32>, tensor<128x128xf32>) {
      %offs_n_causal = arith.extsi %SEQLEN_Q : i32 to i64 loc(#loc477)
      %offs_n_causal_465 = arith.extsi %SEQLEN_K : i32 to i64 loc(#loc477)
      %offs_n_causal_466 = arith.subi %offs_n_causal, %offs_n_causal_465 : i64 loc(#loc477)
      %offs_n_causal_467 = arith.constant 2147483647 : i64 loc(#loc477)
      %offs_n_causal_468 = arith.constant -2147483648 : i64 loc(#loc477)
      %offs_n_causal_469 = arith.cmpi sle, %offs_n_causal_466, %offs_n_causal_467 : i64 loc(#loc477)
      %offs_n_causal_470 = arith.cmpi sge, %offs_n_causal_466, %offs_n_causal_468 : i64 loc(#loc477)
      %offs_n_causal_471 = arith.andi %offs_n_causal_469, %offs_n_causal_470 : i1 loc(#loc477)
      %offs_n_causal_472 = arith.subi %SEQLEN_Q, %SEQLEN_K : i32 loc(#loc477)
      %offs_n_causal_473 = tt.splat %offs_n_causal_472 : i32 -> tensor<32xi32> loc(#loc478)
      %offs_n_causal_474 = arith.extsi %offs_n : tensor<32xi32> to tensor<32xi64> loc(#loc478)
      %offs_n_causal_475 = arith.extsi %offs_n_causal_473 : tensor<32xi32> to tensor<32xi64> loc(#loc478)
      %offs_n_causal_476 = arith.addi %offs_n_causal_474, %offs_n_causal_475 : tensor<32xi64> loc(#loc478)
      %offs_n_causal_477 = arith.constant 2147483647 : i64 loc(#loc478)
      %offs_n_causal_478 = arith.constant -2147483648 : i64 loc(#loc478)
      %offs_n_causal_479 = arith.constant dense<2147483647> : tensor<32xi64> loc(#loc478)
      %offs_n_causal_480 = arith.cmpi sle, %offs_n_causal_476, %offs_n_causal_479 : tensor<32xi64> loc(#loc478)
      %offs_n_causal_481 = arith.constant dense<-2147483648> : tensor<32xi64> loc(#loc478)
      %offs_n_causal_482 = arith.cmpi sge, %offs_n_causal_476, %offs_n_causal_481 : tensor<32xi64> loc(#loc478)
      %offs_n_causal_483 = arith.andi %offs_n_causal_480, %offs_n_causal_482 : tensor<32xi1> loc(#loc478)
      %offs_n_causal_484 = arith.addi %offs_n, %offs_n_causal_473 : tensor<32xi32> loc(#loc478)
      %k_ptrs_485 = arith.constant 32 : i32 loc(#loc479)
      %k_ptrs_486 = arith.constant 32 : i32 loc(#loc479)
      %k_ptrs_487 = arith.extsi %n_full_blocks_337 : i32 to i64 loc(#loc479)
      %k_ptrs_488 = arith.extsi %k_ptrs_486 : i32 to i64 loc(#loc479)
      %k_ptrs_489 = arith.muli %k_ptrs_487, %k_ptrs_488 : i64 loc(#loc479)
      %k_ptrs_490 = arith.constant 2147483647 : i64 loc(#loc479)
      %k_ptrs_491 = arith.constant -2147483648 : i64 loc(#loc479)
      %k_ptrs_492 = arith.cmpi sle, %k_ptrs_489, %k_ptrs_490 : i64 loc(#loc479)
      %k_ptrs_493 = arith.cmpi sge, %k_ptrs_489, %k_ptrs_491 : i64 loc(#loc479)
      %k_ptrs_494 = arith.andi %k_ptrs_492, %k_ptrs_493 : i1 loc(#loc479)
      %k_ptrs_495 = arith.muli %n_full_blocks_337, %k_ptrs_486 : i32 loc(#loc479)
      %k_ptrs_496 = arith.extsi %k_ptrs_495 : i32 to i64 loc(#loc479)
      %k_ptrs_497 = arith.muli %k_ptrs_496, %stride_kn : i64 loc(#loc479)
      %k_ptrs_498 = tt.splat %k_ptrs_497 : i64 -> tensor<128x32xi64> loc(#loc480)
      %k_ptrs_499 = tt.addptr %k_ptrs_251, %k_ptrs_498 : tensor<128x32x!tt.ptr<bf16>>, tensor<128x32xi64> loc(#loc647)
      %k_pe_ptrs_500 = arith.constant 32 : i32 loc(#loc481)
      %k_pe_ptrs_501 = arith.constant 32 : i32 loc(#loc481)
      %k_pe_ptrs_502 = arith.extsi %n_full_blocks_337 : i32 to i64 loc(#loc481)
      %k_pe_ptrs_503 = arith.extsi %k_pe_ptrs_501 : i32 to i64 loc(#loc481)
      %k_pe_ptrs_504 = arith.muli %k_pe_ptrs_502, %k_pe_ptrs_503 : i64 loc(#loc481)
      %k_pe_ptrs_505 = arith.constant 2147483647 : i64 loc(#loc481)
      %k_pe_ptrs_506 = arith.constant -2147483648 : i64 loc(#loc481)
      %k_pe_ptrs_507 = arith.cmpi sle, %k_pe_ptrs_504, %k_pe_ptrs_505 : i64 loc(#loc481)
      %k_pe_ptrs_508 = arith.cmpi sge, %k_pe_ptrs_504, %k_pe_ptrs_506 : i64 loc(#loc481)
      %k_pe_ptrs_509 = arith.andi %k_pe_ptrs_507, %k_pe_ptrs_508 : i1 loc(#loc481)
      %k_pe_ptrs_510 = arith.muli %n_full_blocks_337, %k_pe_ptrs_501 : i32 loc(#loc481)
      %k_pe_ptrs_511 = arith.extsi %k_pe_ptrs_510 : i32 to i64 loc(#loc481)
      %k_pe_ptrs_512 = arith.muli %k_pe_ptrs_511, %stride_kn : i64 loc(#loc481)
      %k_pe_ptrs_513 = tt.splat %k_pe_ptrs_512 : i64 -> tensor<64x32xi64> loc(#loc482)
      %k_pe_ptrs_514 = tt.addptr %k_pe_ptrs_272, %k_pe_ptrs_513 : tensor<64x32x!tt.ptr<bf16>>, tensor<64x32xi64> loc(#loc648)
      %v_ptrs_515 = arith.constant 32 : i32 loc(#loc483)
      %v_ptrs_516 = arith.constant 32 : i32 loc(#loc483)
      %v_ptrs_517 = arith.extsi %n_full_blocks_337 : i32 to i64 loc(#loc483)
      %v_ptrs_518 = arith.extsi %v_ptrs_516 : i32 to i64 loc(#loc483)
      %v_ptrs_519 = arith.muli %v_ptrs_517, %v_ptrs_518 : i64 loc(#loc483)
      %v_ptrs_520 = arith.constant 2147483647 : i64 loc(#loc483)
      %v_ptrs_521 = arith.constant -2147483648 : i64 loc(#loc483)
      %v_ptrs_522 = arith.cmpi sle, %v_ptrs_519, %v_ptrs_520 : i64 loc(#loc483)
      %v_ptrs_523 = arith.cmpi sge, %v_ptrs_519, %v_ptrs_521 : i64 loc(#loc483)
      %v_ptrs_524 = arith.andi %v_ptrs_522, %v_ptrs_523 : i1 loc(#loc483)
      %v_ptrs_525 = arith.muli %n_full_blocks_337, %v_ptrs_516 : i32 loc(#loc483)
      %v_ptrs_526 = arith.extsi %v_ptrs_525 : i32 to i64 loc(#loc483)
      %v_ptrs_527 = arith.muli %v_ptrs_526, %stride_vn : i64 loc(#loc483)
      %v_ptrs_528 = tt.splat %v_ptrs_527 : i64 -> tensor<32x128xi64> loc(#loc484)
      %v_ptrs_529 = tt.addptr %v_ptrs_293, %v_ptrs_528 : tensor<32x128x!tt.ptr<bf16>>, tensor<32x128xi64> loc(#loc649)
      %acc_530:3 = tt.call @"aiter.ops.triton._triton_kernels.attention.mha._attn_fwd_inner__fp32S128_128S_fp32S128S_fp32S128S_bf16S128_128S_bf16S128_64S_Pbf16S128_32S_Pbf16S64_32S_Pbf16S32_128S_i64_i64_i64_i32_i32_i32_fp32_cNone_cNone_i32_cNone_i32_i32_i32S32S_i32_i32_cNone_fp32_fp32_fp32_i32S128S_i32S32S_cTrue_c128_c32_c128_c128_c64_fp32_cTrue_cTrue_cFalse_cFalse_cFalse_cFalse_c3.3895313892515355e+38_cFalse"(%acc_349#2, %acc_349#1, %acc_349#0, %q_305, %q_pe_301, %k_ptrs_499, %k_pe_ptrs_514, %v_ptrs_529, %stride_kn, %stride_vn, %stride_sd_n, %start_m_29, %SEQLEN_K, %SEQLEN_Q, %dropout_p, %philox_seed, %acc_349#3, %acc_349#4, %offs_n_causal_484, %masked_blocks_329, %22, %cst, %cst_306, %cst_307, %offs_m_66, %offs_n, %sm_scale) : (tensor<128x128xf32>, tensor<128xf32>, tensor<128xf32>, tensor<128x128xbf16>, tensor<128x64xbf16>, tensor<128x32x!tt.ptr<bf16>>, tensor<64x32x!tt.ptr<bf16>>, tensor<32x128x!tt.ptr<bf16>>, i64, i64, i64, i32, i32, i32, f32, i32, i32, i32, tensor<32xi32>, i32, i32, f32, f32, f32, tensor<128xi32>, tensor<32xi32>, f32) -> (tensor<128x128xf32>, tensor<128xf32>, tensor<128xf32>) loc(#loc660)
      scf.yield %k_ptrs_499, %k_pe_ptrs_514, %v_ptrs_529, %acc_530#2, %acc_530#1, %acc_530#0 : tensor<128x32x!tt.ptr<bf16>>, tensor<64x32x!tt.ptr<bf16>>, tensor<32x128x!tt.ptr<bf16>>, tensor<128xf32>, tensor<128xf32>, tensor<128x128xf32> loc(#loc660)
    } else {
      scf.yield %k_ptrs_251, %k_pe_ptrs_272, %v_ptrs_293, %acc_349#0, %acc_349#1, %acc_349#2 : tensor<128x32x!tt.ptr<bf16>>, tensor<64x32x!tt.ptr<bf16>>, tensor<32x128x!tt.ptr<bf16>>, tensor<128xf32>, tensor<128xf32>, tensor<128x128xf32> loc(#loc168)
    } loc(#loc168)
    %l_recip = tt.expand_dims %25#4 {axis = 1 : i32} : tensor<128xf32> -> tensor<128x1xf32> loc(#loc486)
    %l_recip_351 = arith.constant 1 : i32 loc(#loc487)
    %l_recip_352 = arith.constant 1.000000e+00 : f32 loc(#loc487)
    %l_recip_353 = arith.constant dense<1.000000e+00> : tensor<128x1xf32> loc(#loc487)
    %l_recip_354 = arith.divf %l_recip_353, %l_recip : tensor<128x1xf32> loc(#loc487)
    %acc_355 = tt.broadcast %l_recip_354 : tensor<128x1xf32> -> tensor<128x128xf32> loc(#loc488)
    %acc_356 = arith.mulf %25#5, %acc_355 : tensor<128x128xf32> loc(#loc651)
    %end_m_idx = arith.constant 1 : i32 loc(#loc489)
    %end_m_idx_357 = arith.constant 1 : i32 loc(#loc489)
    %end_m_idx_358 = arith.extsi %start_m_29 : i32 to i64 loc(#loc489)
    %end_m_idx_359 = arith.extsi %end_m_idx_357 : i32 to i64 loc(#loc489)
    %end_m_idx_360 = arith.addi %end_m_idx_358, %end_m_idx_359 : i64 loc(#loc489)
    %end_m_idx_361 = arith.constant 2147483647 : i64 loc(#loc489)
    %end_m_idx_362 = arith.constant -2147483648 : i64 loc(#loc489)
    %end_m_idx_363 = arith.cmpi sle, %end_m_idx_360, %end_m_idx_361 : i64 loc(#loc489)
    %end_m_idx_364 = arith.cmpi sge, %end_m_idx_360, %end_m_idx_362 : i64 loc(#loc489)
    %end_m_idx_365 = arith.andi %end_m_idx_363, %end_m_idx_364 : i1 loc(#loc489)
    %end_m_idx_366 = arith.addi %start_m_29, %end_m_idx_357 : i32 loc(#loc489)
    %end_m_idx_367 = arith.constant 128 : i32 loc(#loc490)
    %end_m_idx_368 = arith.constant 128 : i32 loc(#loc490)
    %end_m_idx_369 = arith.extsi %end_m_idx_366 : i32 to i64 loc(#loc490)
    %end_m_idx_370 = arith.extsi %end_m_idx_368 : i32 to i64 loc(#loc490)
    %end_m_idx_371 = arith.muli %end_m_idx_369, %end_m_idx_370 : i64 loc(#loc490)
    %end_m_idx_372 = arith.constant 2147483647 : i64 loc(#loc490)
    %end_m_idx_373 = arith.constant -2147483648 : i64 loc(#loc490)
    %end_m_idx_374 = arith.cmpi sle, %end_m_idx_371, %end_m_idx_372 : i64 loc(#loc490)
    %end_m_idx_375 = arith.cmpi sge, %end_m_idx_371, %end_m_idx_373 : i64 loc(#loc490)
    %end_m_idx_376 = arith.andi %end_m_idx_374, %end_m_idx_375 : i1 loc(#loc490)
    %end_m_idx_377 = arith.muli %end_m_idx_366, %end_m_idx_368 : i32 loc(#loc490)
    %start_m_idx = arith.constant 128 : i32 loc(#loc491)
    %start_m_idx_378 = arith.constant 128 : i32 loc(#loc491)
    %start_m_idx_379 = arith.extsi %start_m_29 : i32 to i64 loc(#loc491)
    %start_m_idx_380 = arith.extsi %start_m_idx_378 : i32 to i64 loc(#loc491)
    %start_m_idx_381 = arith.muli %start_m_idx_379, %start_m_idx_380 : i64 loc(#loc491)
    %start_m_idx_382 = arith.constant 2147483647 : i64 loc(#loc491)
    %start_m_idx_383 = arith.constant -2147483648 : i64 loc(#loc491)
    %start_m_idx_384 = arith.cmpi sle, %start_m_idx_381, %start_m_idx_382 : i64 loc(#loc491)
    %start_m_idx_385 = arith.cmpi sge, %start_m_idx_381, %start_m_idx_383 : i64 loc(#loc491)
    %start_m_idx_386 = arith.andi %start_m_idx_384, %start_m_idx_385 : i1 loc(#loc491)
    %start_m_idx_387 = arith.muli %start_m_29, %start_m_idx_378 : i32 loc(#loc491)
    %causal_start_idx = arith.extsi %SEQLEN_Q : i32 to i64 loc(#loc492)
    %causal_start_idx_388 = arith.extsi %SEQLEN_K : i32 to i64 loc(#loc492)
    %causal_start_idx_389 = arith.subi %causal_start_idx, %causal_start_idx_388 : i64 loc(#loc492)
    %causal_start_idx_390 = arith.constant 2147483647 : i64 loc(#loc492)
    %causal_start_idx_391 = arith.constant -2147483648 : i64 loc(#loc492)
    %causal_start_idx_392 = arith.cmpi sle, %causal_start_idx_389, %causal_start_idx_390 : i64 loc(#loc492)
    %causal_start_idx_393 = arith.cmpi sge, %causal_start_idx_389, %causal_start_idx_391 : i64 loc(#loc492)
    %causal_start_idx_394 = arith.andi %causal_start_idx_392, %causal_start_idx_393 : i1 loc(#loc492)
    %causal_start_idx_395 = arith.subi %SEQLEN_Q, %SEQLEN_K : i32 loc(#loc492)
    %26 = arith.cmpi sgt, %causal_start_idx_395, %start_m_idx_387 : i32 loc(#loc185)
    %27 = arith.cmpi slt, %causal_start_idx_395, %end_m_idx_377 : i32 loc(#loc186)
    %28 = arith.andi %26, %27 : i1 loc(#loc185)
    %29 = scf.if %28 -> (tensor<128x128xf32>) {
      %out_mask_boundary = tt.splat %causal_start_idx_395 : i32 -> tensor<128xi32> loc(#loc493)
      %mask_m_offsets = tt.make_range {end = 128 : i32, start = 0 : i32} : tensor<128xi32> loc(#loc494)
      %mask_m_offsets_465 = tt.splat %start_m_idx_387 : i32 -> tensor<128xi32> loc(#loc495)
      %mask_m_offsets_466 = arith.extsi %mask_m_offsets_465 : tensor<128xi32> to tensor<128xi64> loc(#loc495)
      %mask_m_offsets_467 = arith.extsi %mask_m_offsets : tensor<128xi32> to tensor<128xi64> loc(#loc495)
      %mask_m_offsets_468 = arith.addi %mask_m_offsets_466, %mask_m_offsets_467 : tensor<128xi64> loc(#loc495)
      %mask_m_offsets_469 = arith.constant 2147483647 : i64 loc(#loc495)
      %mask_m_offsets_470 = arith.constant -2147483648 : i64 loc(#loc495)
      %mask_m_offsets_471 = arith.constant dense<2147483647> : tensor<128xi64> loc(#loc495)
      %mask_m_offsets_472 = arith.cmpi sle, %mask_m_offsets_468, %mask_m_offsets_471 : tensor<128xi64> loc(#loc495)
      %mask_m_offsets_473 = arith.constant dense<-2147483648> : tensor<128xi64> loc(#loc495)
      %mask_m_offsets_474 = arith.cmpi sge, %mask_m_offsets_468, %mask_m_offsets_473 : tensor<128xi64> loc(#loc495)
      %mask_m_offsets_475 = arith.andi %mask_m_offsets_472, %mask_m_offsets_474 : tensor<128xi1> loc(#loc495)
      %mask_m_offsets_476 = arith.addi %mask_m_offsets_465, %mask_m_offsets : tensor<128xi32> loc(#loc495)
      %out_ptrs_mask = tt.expand_dims %mask_m_offsets_476 {axis = 1 : i32} : tensor<128xi32> -> tensor<128x1xi32> loc(#loc496)
      %out_ptrs_mask_477 = tt.expand_dims %out_mask_boundary {axis = 0 : i32} : tensor<128xi32> -> tensor<1x128xi32> loc(#loc497)
      %out_ptrs_mask_478 = tt.broadcast %out_ptrs_mask : tensor<128x1xi32> -> tensor<128x128xi32> loc(#loc496)
      %out_ptrs_mask_479 = tt.broadcast %out_ptrs_mask_477 : tensor<1x128xi32> -> tensor<128x128xi32> loc(#loc496)
      %out_ptrs_mask_480 = arith.cmpi sge, %out_ptrs_mask_478, %out_ptrs_mask_479 : tensor<128x128xi32> loc(#loc496)
      %z = arith.constant 0.000000e+00 : f32 loc(#loc498)
      %acc_481 = arith.constant dense<0.000000e+00> : tensor<128x128xf32> loc(#loc499)
      %acc_482 = arith.select %out_ptrs_mask_480, %acc_356, %acc_481 : tensor<128x128xi1>, tensor<128x128xf32> loc(#loc652)
      scf.yield %acc_482 : tensor<128x128xf32> loc(#loc652)
    } else {
      scf.yield %acc_356 : tensor<128x128xf32> loc(#loc187)
    } loc(#loc187)
    %overflow_size = arith.extsi %end_m_idx_377 : i32 to i64 loc(#loc500)
    %overflow_size_396 = arith.extsi %SEQLEN_Q : i32 to i64 loc(#loc500)
    %overflow_size_397 = arith.subi %overflow_size, %overflow_size_396 : i64 loc(#loc500)
    %overflow_size_398 = arith.constant 2147483647 : i64 loc(#loc500)
    %overflow_size_399 = arith.constant -2147483648 : i64 loc(#loc500)
    %overflow_size_400 = arith.cmpi sle, %overflow_size_397, %overflow_size_398 : i64 loc(#loc500)
    %overflow_size_401 = arith.cmpi sge, %overflow_size_397, %overflow_size_399 : i64 loc(#loc500)
    %overflow_size_402 = arith.andi %overflow_size_400, %overflow_size_401 : i1 loc(#loc500)
    %overflow_size_403 = arith.subi %end_m_idx_377, %SEQLEN_Q : i32 loc(#loc500)
    %softmax_lse = math.log2 %25#4 : tensor<128xf32> loc(#loc501)
    %softmax_lse_404 = arith.addf %25#3, %softmax_lse : tensor<128xf32> loc(#loc502)
    %softmax_lse_405 = arith.constant 0.693147182 : f32 loc(#loc503)
    %softmax_lse_406 = arith.constant 0.693147182 : f32 loc(#loc503)
    %softmax_lse_407 = arith.constant dense<0.693147182> : tensor<128xf32> loc(#loc503)
    %softmax_lse_408 = arith.mulf %softmax_lse_404, %softmax_lse_407 : tensor<128xf32> loc(#loc503)
    %lse_causal_mask = tt.make_range {end = 128 : i32, start = 0 : i32} : tensor<128xi32> loc(#loc504)
    %lse_causal_mask_409 = tt.splat %start_m_idx_387 : i32 -> tensor<128xi32> loc(#loc505)
    %lse_causal_mask_410 = arith.extsi %lse_causal_mask_409 : tensor<128xi32> to tensor<128xi64> loc(#loc505)
    %lse_causal_mask_411 = arith.extsi %lse_causal_mask : tensor<128xi32> to tensor<128xi64> loc(#loc505)
    %lse_causal_mask_412 = arith.addi %lse_causal_mask_410, %lse_causal_mask_411 : tensor<128xi64> loc(#loc505)
    %lse_causal_mask_413 = arith.constant 2147483647 : i64 loc(#loc505)
    %lse_causal_mask_414 = arith.constant -2147483648 : i64 loc(#loc505)
    %lse_causal_mask_415 = arith.constant dense<2147483647> : tensor<128xi64> loc(#loc505)
    %lse_causal_mask_416 = arith.cmpi sle, %lse_causal_mask_412, %lse_causal_mask_415 : tensor<128xi64> loc(#loc505)
    %lse_causal_mask_417 = arith.constant dense<-2147483648> : tensor<128xi64> loc(#loc505)
    %lse_causal_mask_418 = arith.cmpi sge, %lse_causal_mask_412, %lse_causal_mask_417 : tensor<128xi64> loc(#loc505)
    %lse_causal_mask_419 = arith.andi %lse_causal_mask_416, %lse_causal_mask_418 : tensor<128xi1> loc(#loc505)
    %lse_causal_mask_420 = arith.addi %lse_causal_mask_409, %lse_causal_mask : tensor<128xi32> loc(#loc505)
    %lse_causal_mask_421 = tt.splat %causal_start_idx_395 : i32 -> tensor<128xi32> loc(#loc506)
    %lse_causal_mask_422 = arith.cmpi slt, %lse_causal_mask_420, %lse_causal_mask_421 : tensor<128xi32> loc(#loc506)
    %softmax_lse_423 = arith.constant 0.000000e+00 : f32 loc(#loc507)
    %softmax_lse_424 = arith.constant 0.000000e+00 : f32 loc(#loc507)
    %softmax_lse_425 = arith.constant dense<0.000000e+00> : tensor<128xf32> loc(#loc507)
    %softmax_lse_426 = arith.select %lse_causal_mask_422, %softmax_lse_425, %softmax_lse_408 : tensor<128xi1>, tensor<128xf32> loc(#loc507)
    %offs_lse_427 = arith.extsi %off_z_43 : i32 to i64 loc(#loc508)
    %offs_lse_428 = arith.muli %offs_lse_427, %stride_lse_z : i64 loc(#loc508)
    %offs_lse_429 = arith.extsi %off_q_head_26 : i32 to i64 loc(#loc509)
    %offs_lse_430 = arith.muli %offs_lse_429, %stride_lse_h : i64 loc(#loc509)
    %offs_lse_431 = arith.addi %offs_lse_428, %offs_lse_430 : i64 loc(#loc508)
    %offs_lse_432 = arith.extsi %cu_seqlens_q_start : i32 to i64 loc(#loc510)
    %offs_lse_433 = arith.muli %offs_lse_432, %stride_lse_m_85 : i64 loc(#loc510)
    %offs_lse_434 = arith.addi %offs_lse_431, %offs_lse_433 : i64 loc(#loc508)
    %offs_lse_435 = arith.extsi %offs_m_66 : tensor<128xi32> to tensor<128xi64> loc(#loc511)
    %offs_lse_436 = tt.splat %stride_lse_m_85 : i64 -> tensor<128xi64> loc(#loc511)
    %offs_lse_437 = arith.muli %offs_lse_435, %offs_lse_436 : tensor<128xi64> loc(#loc511)
    %offs_lse_438 = tt.splat %offs_lse_434 : i64 -> tensor<128xi64> loc(#loc508)
    %offs_lse_439 = arith.addi %offs_lse_438, %offs_lse_437 : tensor<128xi64> loc(#loc508)
    %c0_i32_440 = arith.constant 0 : i32 loc(#loc207)
    %30 = arith.cmpi sgt, %overflow_size_403, %c0_i32_440 : i32 loc(#loc207)
    scf.if %30 {
      %boundary = arith.constant 128 : i32 loc(#loc512)
      %boundary_465 = arith.constant 128 : i32 loc(#loc512)
      %boundary_466 = arith.extsi %boundary_465 : i32 to i64 loc(#loc512)
      %boundary_467 = arith.extsi %overflow_size_403 : i32 to i64 loc(#loc512)
      %boundary_468 = arith.subi %boundary_466, %boundary_467 : i64 loc(#loc512)
      %boundary_469 = arith.constant 2147483647 : i64 loc(#loc512)
      %boundary_470 = arith.constant -2147483648 : i64 loc(#loc512)
      %boundary_471 = arith.cmpi sle, %boundary_468, %boundary_469 : i64 loc(#loc512)
      %boundary_472 = arith.cmpi sge, %boundary_468, %boundary_470 : i64 loc(#loc512)
      %boundary_473 = arith.andi %boundary_471, %boundary_472 : i1 loc(#loc512)
      %boundary_474 = arith.subi %boundary_465, %overflow_size_403 : i32 loc(#loc512)
      %boundary_475 = tt.splat %boundary_474 : i32 -> tensor<128xi32> loc(#loc513)
      %lse_mask_476 = tt.make_range {end = 128 : i32, start = 0 : i32} : tensor<128xi32> loc(#loc514)
      %lse_mask_477 = arith.cmpi slt, %lse_mask_476, %boundary_475 : tensor<128xi32> loc(#loc514)
      %36 = tt.splat %softmax_lse_ptr : !tt.ptr<f32> -> tensor<128x!tt.ptr<f32>> loc(#loc212)
      %37 = tt.addptr %36, %offs_lse_439 : tensor<128x!tt.ptr<f32>>, tensor<128xi64> loc(#loc212)
      tt.store %37, %softmax_lse_426, %lse_mask_477 : tensor<128x!tt.ptr<f32>> loc(#loc213)
    } else {
      %36 = tt.splat %softmax_lse_ptr : !tt.ptr<f32> -> tensor<128x!tt.ptr<f32>> loc(#loc214)
      %37 = tt.addptr %36, %offs_lse_439 : tensor<128x!tt.ptr<f32>>, tensor<128xi64> loc(#loc214)
      tt.store %37, %softmax_lse_426 : tensor<128x!tt.ptr<f32>> loc(#loc215)
    } loc(#loc208)
    %offs_out_441 = arith.extsi %off_z_43 : i32 to i64 loc(#loc515)
    %offs_out_442 = arith.muli %offs_out_441, %stride_oz : i64 loc(#loc515)
    %offs_out_443 = arith.extsi %off_q_head_26 : i32 to i64 loc(#loc516)
    %offs_out_444 = arith.muli %offs_out_443, %stride_oh : i64 loc(#loc516)
    %offs_out_445 = arith.addi %offs_out_442, %offs_out_444 : i64 loc(#loc515)
    %offs_out_446 = arith.extsi %cu_seqlens_q_start : i32 to i64 loc(#loc517)
    %offs_out_447 = arith.muli %offs_out_446, %stride_om : i64 loc(#loc517)
    %offs_out_448 = arith.addi %offs_out_445, %offs_out_447 : i64 loc(#loc515)
    %offs_out_449 = tt.expand_dims %offs_m_66 {axis = 1 : i32} : tensor<128xi32> -> tensor<128x1xi32> loc(#loc518)
    %offs_out_450 = arith.extsi %offs_out_449 : tensor<128x1xi32> to tensor<128x1xi64> loc(#loc518)
    %offs_out_451 = tt.splat %stride_om : i64 -> tensor<128x1xi64> loc(#loc518)
    %offs_out_452 = arith.muli %offs_out_450, %offs_out_451 : tensor<128x1xi64> loc(#loc518)
    %offs_out_453 = tt.splat %offs_out_448 : i64 -> tensor<128x1xi64> loc(#loc515)
    %offs_out_454 = arith.addi %offs_out_453, %offs_out_452 : tensor<128x1xi64> loc(#loc515)
    %offs_out_455 = tt.expand_dims %offs_d {axis = 0 : i32} : tensor<128xi32> -> tensor<1x128xi32> loc(#loc519)
    %offs_out_456 = arith.extsi %offs_out_455 : tensor<1x128xi32> to tensor<1x128xi64> loc(#loc519)
    %offs_out_457 = tt.splat %stride_on_84 : i64 -> tensor<1x128xi64> loc(#loc519)
    %offs_out_458 = arith.muli %offs_out_456, %offs_out_457 : tensor<1x128xi64> loc(#loc519)
    %offs_out_459 = tt.broadcast %offs_out_454 : tensor<128x1xi64> -> tensor<128x128xi64> loc(#loc515)
    %offs_out_460 = tt.broadcast %offs_out_458 : tensor<1x128xi64> -> tensor<128x128xi64> loc(#loc515)
    %offs_out_461 = arith.addi %offs_out_459, %offs_out_460 : tensor<128x128xi64> loc(#loc515)
    %out_mask_462 = arith.constant true loc(#loc520)
    %out_mask_463 = arith.constant dense<true> : tensor<128x1xi1> loc(#loc653)
    %c0_i32_464 = arith.constant 0 : i32 loc(#loc222)
    %31 = arith.cmpi sgt, %overflow_size_403, %c0_i32_464 : i32 loc(#loc222)
    %32 = scf.if %31 -> (tensor<128x1xi1>) {
      %out_mask_465 = tt.expand_dims %offs_m_66 {axis = 1 : i32} : tensor<128xi32> -> tensor<128x1xi32> loc(#loc521)
      %out_mask_466 = tt.splat %SEQLEN_Q : i32 -> tensor<128x1xi32> loc(#loc521)
      %out_mask_467 = arith.cmpi slt, %out_mask_465, %out_mask_466 : tensor<128x1xi32> loc(#loc521)
      %out_mask_468 = arith.andi %out_mask_463, %out_mask_467 : tensor<128x1xi1> loc(#loc654)
      scf.yield %out_mask_468 : tensor<128x1xi1> loc(#loc654)
    } else {
      scf.yield %out_mask_463 : tensor<128x1xi1> loc(#loc223)
    } loc(#loc223)
    %op = arith.truncf %29 : tensor<128x128xf32> to tensor<128x128xbf16> loc(#loc523)
    %33 = tt.splat %out_ptr : !tt.ptr<bf16> -> tensor<128x128x!tt.ptr<bf16>> loc(#loc227)
    %34 = tt.addptr %33, %offs_out_461 : tensor<128x128x!tt.ptr<bf16>>, tensor<128x128xi64> loc(#loc227)
    %35 = tt.broadcast %32 : tensor<128x1xi1> -> tensor<128x128xi1> loc(#loc228)
    tt.store %34, %op, %35 : tensor<128x128x!tt.ptr<bf16>> loc(#loc228)
    tt.return loc(#loc)
  } loc(#loc)
  tt.func private @aiter.ops.triton.utils._triton.pid_preprocessing.remap_xcd__i32_c128_c8(%pid: i32 loc("pid"(#loc229))) -> i32 attributes {noinline = false} {
    %pids_per_xcd = arith.constant 16 : i32 loc(#loc525)
    %tall_xcds = arith.constant 0 : i32 loc(#loc526)
    %tall_xcds_0 = arith.constant 0 : i32 loc(#loc527)
    %tall_xcds_1 = arith.cmpi eq, %tall_xcds, %tall_xcds_0 : i32 loc(#loc527)
    %tall_xcds_2 = scf.if %tall_xcds_1 -> (i32) {
      %tall_xcds_7 = arith.constant 8 : i32 loc(#loc529)
      scf.yield %tall_xcds_7 : i32 loc(#loc529)
    } else {
      scf.yield %tall_xcds : i32 loc(#loc528)
    } loc(#loc528)
    %xcd = arith.constant 8 : i32 loc(#loc530)
    %xcd_3 = arith.constant 8 : i32 loc(#loc530)
    %xcd_4 = arith.remsi %pid, %xcd_3 : i32 loc(#loc530)
    %local_pid = arith.constant 8 : i32 loc(#loc531)
    %local_pid_5 = arith.constant 8 : i32 loc(#loc531)
    %local_pid_6 = arith.divsi %pid, %local_pid_5 : i32 loc(#loc531)
    %0 = arith.cmpi slt, %xcd_4, %tall_xcds_2 : i32 loc(#loc236)
    %1 = scf.if %0 -> (i32) {
      %pid_7 = arith.extsi %xcd_4 : i32 to i64 loc(#loc532)
      %pid_8 = arith.extsi %pids_per_xcd : i32 to i64 loc(#loc532)
      %pid_9 = arith.muli %pid_7, %pid_8 : i64 loc(#loc532)
      %pid_10 = arith.constant 2147483647 : i64 loc(#loc532)
      %pid_11 = arith.constant -2147483648 : i64 loc(#loc532)
      %pid_12 = arith.cmpi sle, %pid_9, %pid_10 : i64 loc(#loc532)
      %pid_13 = arith.cmpi sge, %pid_9, %pid_11 : i64 loc(#loc532)
      %pid_14 = arith.andi %pid_12, %pid_13 : i1 loc(#loc532)
      %pid_15 = arith.muli %xcd_4, %pids_per_xcd : i32 loc(#loc532)
      %pid_16 = arith.extsi %pid_15 : i32 to i64 loc(#loc532)
      %pid_17 = arith.extsi %local_pid_6 : i32 to i64 loc(#loc532)
      %pid_18 = arith.addi %pid_16, %pid_17 : i64 loc(#loc532)
      %pid_19 = arith.constant 2147483647 : i64 loc(#loc532)
      %pid_20 = arith.constant -2147483648 : i64 loc(#loc532)
      %pid_21 = arith.cmpi sle, %pid_18, %pid_19 : i64 loc(#loc532)
      %pid_22 = arith.cmpi sge, %pid_18, %pid_20 : i64 loc(#loc532)
      %pid_23 = arith.andi %pid_21, %pid_22 : i1 loc(#loc532)
      %pid_24 = arith.addi %pid_15, %local_pid_6 : i32 loc(#loc655)
      scf.yield %pid_24 : i32 loc(#loc655)
    } else {
      %pid_7 = arith.extsi %tall_xcds_2 : i32 to i64 loc(#loc533)
      %pid_8 = arith.extsi %pids_per_xcd : i32 to i64 loc(#loc533)
      %pid_9 = arith.muli %pid_7, %pid_8 : i64 loc(#loc533)
      %pid_10 = arith.constant 2147483647 : i64 loc(#loc533)
      %pid_11 = arith.constant -2147483648 : i64 loc(#loc533)
      %pid_12 = arith.cmpi sle, %pid_9, %pid_10 : i64 loc(#loc533)
      %pid_13 = arith.cmpi sge, %pid_9, %pid_11 : i64 loc(#loc533)
      %pid_14 = arith.andi %pid_12, %pid_13 : i1 loc(#loc533)
      %pid_15 = arith.muli %tall_xcds_2, %pids_per_xcd : i32 loc(#loc533)
      %pid_16 = arith.extsi %xcd_4 : i32 to i64 loc(#loc534)
      %pid_17 = arith.extsi %tall_xcds_2 : i32 to i64 loc(#loc534)
      %pid_18 = arith.subi %pid_16, %pid_17 : i64 loc(#loc534)
      %pid_19 = arith.constant 2147483647 : i64 loc(#loc534)
      %pid_20 = arith.constant -2147483648 : i64 loc(#loc534)
      %pid_21 = arith.cmpi sle, %pid_18, %pid_19 : i64 loc(#loc534)
      %pid_22 = arith.cmpi sge, %pid_18, %pid_20 : i64 loc(#loc534)
      %pid_23 = arith.andi %pid_21, %pid_22 : i1 loc(#loc534)
      %pid_24 = arith.subi %xcd_4, %tall_xcds_2 : i32 loc(#loc534)
      %pid_25 = arith.constant 1 : i32 loc(#loc535)
      %pid_26 = arith.constant 1 : i32 loc(#loc535)
      %pid_27 = arith.extsi %pids_per_xcd : i32 to i64 loc(#loc535)
      %pid_28 = arith.extsi %pid_26 : i32 to i64 loc(#loc535)
      %pid_29 = arith.subi %pid_27, %pid_28 : i64 loc(#loc535)
      %pid_30 = arith.constant 2147483647 : i64 loc(#loc535)
      %pid_31 = arith.constant -2147483648 : i64 loc(#loc535)
      %pid_32 = arith.cmpi sle, %pid_29, %pid_30 : i64 loc(#loc535)
      %pid_33 = arith.cmpi sge, %pid_29, %pid_31 : i64 loc(#loc535)
      %pid_34 = arith.andi %pid_32, %pid_33 : i1 loc(#loc535)
      %pid_35 = arith.subi %pids_per_xcd, %pid_26 : i32 loc(#loc535)
      %pid_36 = arith.extsi %pid_24 : i32 to i64 loc(#loc536)
      %pid_37 = arith.extsi %pid_35 : i32 to i64 loc(#loc536)
      %pid_38 = arith.muli %pid_36, %pid_37 : i64 loc(#loc536)
      %pid_39 = arith.constant 2147483647 : i64 loc(#loc536)
      %pid_40 = arith.constant -2147483648 : i64 loc(#loc536)
      %pid_41 = arith.cmpi sle, %pid_38, %pid_39 : i64 loc(#loc536)
      %pid_42 = arith.cmpi sge, %pid_38, %pid_40 : i64 loc(#loc536)
      %pid_43 = arith.andi %pid_41, %pid_42 : i1 loc(#loc536)
      %pid_44 = arith.muli %pid_24, %pid_35 : i32 loc(#loc536)
      %pid_45 = arith.extsi %pid_15 : i32 to i64 loc(#loc533)
      %pid_46 = arith.extsi %pid_44 : i32 to i64 loc(#loc533)
      %pid_47 = arith.addi %pid_45, %pid_46 : i64 loc(#loc533)
      %pid_48 = arith.constant 2147483647 : i64 loc(#loc533)
      %pid_49 = arith.constant -2147483648 : i64 loc(#loc533)
      %pid_50 = arith.cmpi sle, %pid_47, %pid_48 : i64 loc(#loc533)
      %pid_51 = arith.cmpi sge, %pid_47, %pid_49 : i64 loc(#loc533)
      %pid_52 = arith.andi %pid_50, %pid_51 : i1 loc(#loc533)
      %pid_53 = arith.addi %pid_15, %pid_44 : i32 loc(#loc533)
      %pid_54 = arith.extsi %pid_53 : i32 to i64 loc(#loc533)
      %pid_55 = arith.extsi %local_pid_6 : i32 to i64 loc(#loc533)
      %pid_56 = arith.addi %pid_54, %pid_55 : i64 loc(#loc533)
      %pid_57 = arith.constant 2147483647 : i64 loc(#loc533)
      %pid_58 = arith.constant -2147483648 : i64 loc(#loc533)
      %pid_59 = arith.cmpi sle, %pid_56, %pid_57 : i64 loc(#loc533)
      %pid_60 = arith.cmpi sge, %pid_56, %pid_58 : i64 loc(#loc533)
      %pid_61 = arith.andi %pid_59, %pid_60 : i1 loc(#loc533)
      %pid_62 = arith.addi %pid_53, %local_pid_6 : i32 loc(#loc656)
      scf.yield %pid_62 : i32 loc(#loc533)
    } loc(#loc237)
    tt.return %1 : i32 loc(#loc243)
  ^bb1:  // no predecessors
    %2 = ub.poison : i32 loc(#loc229)
    tt.return %2 : i32 loc(#loc229)
  } loc(#loc229)
  tt.func private @aiter.ops.triton._triton_kernels.attention.mha._cdiv_fn__i32_c32(%x: i32 loc("x"(#loc244))) -> i32 attributes {noinline = false} {
    %c32_i32 = arith.constant 32 : i32 loc(#loc245)
    %c32_i32_0 = arith.constant 32 : i32 loc(#loc245)
    %0 = arith.extsi %x : i32 to i64 loc(#loc245)
    %1 = arith.extsi %c32_i32_0 : i32 to i64 loc(#loc245)
    %2 = arith.addi %0, %1 : i64 loc(#loc245)
    %c2147483647_i64 = arith.constant 2147483647 : i64 loc(#loc245)
    %c-2147483648_i64 = arith.constant -2147483648 : i64 loc(#loc245)
    %3 = arith.cmpi sle, %2, %c2147483647_i64 : i64 loc(#loc245)
    %4 = arith.cmpi sge, %2, %c-2147483648_i64 : i64 loc(#loc245)
    %5 = arith.andi %3, %4 : i1 loc(#loc245)
    %6 = arith.addi %x, %c32_i32_0 : i32 loc(#loc245)
    %c1_i32 = arith.constant 1 : i32 loc(#loc245)
    %c1_i32_1 = arith.constant 1 : i32 loc(#loc245)
    %7 = arith.extsi %6 : i32 to i64 loc(#loc245)
    %8 = arith.extsi %c1_i32_1 : i32 to i64 loc(#loc245)
    %9 = arith.subi %7, %8 : i64 loc(#loc245)
    %c2147483647_i64_2 = arith.constant 2147483647 : i64 loc(#loc245)
    %c-2147483648_i64_3 = arith.constant -2147483648 : i64 loc(#loc245)
    %10 = arith.cmpi sle, %9, %c2147483647_i64_2 : i64 loc(#loc245)
    %11 = arith.cmpi sge, %9, %c-2147483648_i64_3 : i64 loc(#loc245)
    %12 = arith.andi %10, %11 : i1 loc(#loc245)
    %13 = arith.subi %6, %c1_i32_1 : i32 loc(#loc245)
    %c32_i32_4 = arith.constant 32 : i32 loc(#loc246)
    %c32_i32_5 = arith.constant 32 : i32 loc(#loc246)
    %14 = arith.divsi %13, %c32_i32_5 : i32 loc(#loc246)
    tt.return %14 : i32 loc(#loc247)
  ^bb1:  // no predecessors
    %15 = ub.poison : i32 loc(#loc244)
    tt.return %15 : i32 loc(#loc244)
  } loc(#loc244)
  tt.func private @triton.language.standard.zeros__Tc128_c128T_cbf16() -> tensor<128x128xbf16> attributes {noinline = false} {
    %cst = arith.constant 0.000000e+00 : bf16 loc(#loc249)
    %cst_0 = arith.constant dense<0.000000e+00> : tensor<128x128xbf16> loc(#loc249)
    tt.return %cst_0 : tensor<128x128xbf16> loc(#loc250)
  ^bb1:  // no predecessors
    %0 = ub.poison : tensor<128x128xbf16> loc(#loc248)
    tt.return %0 : tensor<128x128xbf16> loc(#loc248)
  } loc(#loc248)
  tt.func private @triton.language.standard.zeros__Tc128_c128T_cfp32() -> tensor<128x128xf32> attributes {noinline = false} {
    %cst = arith.constant 0.000000e+00 : f32 loc(#loc249)
    %cst_0 = arith.constant dense<0.000000e+00> : tensor<128x128xf32> loc(#loc249)
    tt.return %cst_0 : tensor<128x128xf32> loc(#loc250)
  ^bb1:  // no predecessors
    %0 = ub.poison : tensor<128x128xf32> loc(#loc248)
    tt.return %0 : tensor<128x128xf32> loc(#loc248)
  } loc(#loc248)
  tt.func private @"aiter.ops.triton._triton_kernels.attention.mha._attn_fwd_inner__fp32S128_128S_fp32S128S_fp32S128S_bf16S128_128S_bf16S128_64S_Pbf16S128_32S_Pbf16S64_32S_Pbf16S32_128S_i64_i64_i64_i32_i32_i32_fp32_cNone_cNone_i32_cNone_i32_i32_c0_c0_c0_cNone_fp32_fp32_fp32_i32S128S_i32S32S_cTrue_c128_c32_c128_c128_c64_fp32_cFalse_cFalse_cFalse_cFalse_cFalse_cFalse_c3.3895313892515355e+38_cTrue"(%acc: tensor<128x128xf32> loc("acc"(#loc251)), %l_i: tensor<128xf32> loc("l_i"(#loc251)), %m_i: tensor<128xf32> loc("m_i"(#loc251)), %q: tensor<128x128xbf16> loc("q"(#loc251)), %q_pe: tensor<128x64xbf16> loc("q_pe"(#loc251)), %k_ptrs: tensor<128x32x!tt.ptr<bf16>> loc("k_ptrs"(#loc251)), %k_pe_ptrs: tensor<64x32x!tt.ptr<bf16>> loc("k_pe_ptrs"(#loc251)), %v_ptrs: tensor<32x128x!tt.ptr<bf16>> loc("v_ptrs"(#loc251)), %stride_kn: i64 loc("stride_kn"(#loc251)), %stride_vk: i64 loc("stride_vk"(#loc251)), %stride_sn: i64 loc("stride_sn"(#loc251)), %start_m: i32 loc("start_m"(#loc251)), %seqlen_k: i32 loc("seqlen_k"(#loc251)), %seqlen_q: i32 loc("seqlen_q"(#loc251)), %dropout_p: f32 loc("dropout_p"(#loc251)), %philox_seed: i32 loc("philox_seed"(#loc251)), %block_min: i32 loc("block_min"(#loc251)), %block_max: i32 loc("block_max"(#loc251)), %descale_q: f32 loc("descale_q"(#loc251)), %descale_k: f32 loc("descale_k"(#loc251)), %descale_v: f32 loc("descale_v"(#loc251)), %OFFS_M: tensor<128xi32> loc("OFFS_M"(#loc251)), %OFFS_N: tensor<32xi32> loc("OFFS_N"(#loc251)), %SM_SCALE: f32 loc("SM_SCALE"(#loc251))) -> (tensor<128x128xf32>, tensor<128xf32>, tensor<128xf32>) attributes {noinline = false} {
    %c32_i32 = arith.constant 32 : i32 loc(#loc252)
    %0 = arith.bitcast %block_min : i32 to i32 loc(#loc252)
    %1 = arith.bitcast %block_max : i32 to i32 loc(#loc252)
    %2 = arith.bitcast %c32_i32 : i32 to i32 loc(#loc252)
    %3 = ub.poison : i32 loc(#loc252)
    %v_ptrs_0:6 = scf.for %start_n = %0 to %1 step %2 iter_args(%acc_1 = %acc, %l_i_2 = %l_i, %m_i_3 = %m_i, %k_ptrs_4 = %k_ptrs, %k_pe_ptrs_5 = %k_pe_ptrs, %v_ptrs_6 = %v_ptrs) -> (tensor<128x128xf32>, tensor<128xf32>, tensor<128xf32>, tensor<128x32x!tt.ptr<bf16>>, tensor<64x32x!tt.ptr<bf16>>, tensor<32x128x!tt.ptr<bf16>>)  : i32 {
      %k = tt.call @aiter.ops.triton._triton_kernels.attention.mha._load_fn__Pbf16S128_32S_cNone_cNone_c128_i32(%k_ptrs_4, %seqlen_k) : (tensor<128x32x!tt.ptr<bf16>>, i32) -> tensor<128x32xbf16> loc(#loc563)
      %k_pe = tt.call @aiter.ops.triton._triton_kernels.attention.mha._load_fn__Pbf16S64_32S_cNone_cNone_c192_i32(%k_pe_ptrs_5, %seqlen_k) : (tensor<64x32x!tt.ptr<bf16>>, i32) -> tensor<64x32xbf16> loc(#loc564)
      %v = tt.call @aiter.ops.triton._triton_kernels.attention.mha._load_fn__Pbf16S32_128S_cNone_cNone_i32_c128(%v_ptrs_6, %seqlen_k) : (tensor<32x128x!tt.ptr<bf16>>, i32) -> tensor<32x128xbf16> loc(#loc565)
      %mask = arith.constant true loc(#loc566)
      %mask_7 = arith.constant dense<true> : tensor<128x32xi1> loc(#loc566)
      %q_mask = tt.expand_dims %OFFS_M {axis = 1 : i32} : tensor<128xi32> -> tensor<128x1xi32> loc(#loc567)
      %q_mask_8 = tt.splat %seqlen_q : i32 -> tensor<128x1xi32> loc(#loc567)
      %q_mask_9 = arith.cmpi slt, %q_mask, %q_mask_8 : tensor<128x1xi32> loc(#loc567)
      %k_mask = tt.make_range {end = 32 : i32, start = 0 : i32} : tensor<32xi32> loc(#loc568)
      %k_mask_10 = tt.splat %start_n : i32 -> tensor<32xi32> loc(#loc569)
      %k_mask_11 = arith.extsi %k_mask_10 : tensor<32xi32> to tensor<32xi64> loc(#loc569)
      %k_mask_12 = arith.extsi %k_mask : tensor<32xi32> to tensor<32xi64> loc(#loc569)
      %k_mask_13 = arith.addi %k_mask_11, %k_mask_12 : tensor<32xi64> loc(#loc569)
      %k_mask_14 = arith.constant 2147483647 : i64 loc(#loc569)
      %k_mask_15 = arith.constant -2147483648 : i64 loc(#loc569)
      %k_mask_16 = arith.constant dense<2147483647> : tensor<32xi64> loc(#loc569)
      %k_mask_17 = arith.cmpi sle, %k_mask_13, %k_mask_16 : tensor<32xi64> loc(#loc569)
      %k_mask_18 = arith.constant dense<-2147483648> : tensor<32xi64> loc(#loc569)
      %k_mask_19 = arith.cmpi sge, %k_mask_13, %k_mask_18 : tensor<32xi64> loc(#loc569)
      %k_mask_20 = arith.andi %k_mask_17, %k_mask_19 : tensor<32xi1> loc(#loc569)
      %k_mask_21 = arith.addi %k_mask_10, %k_mask : tensor<32xi32> loc(#loc569)
      %k_mask_22 = tt.expand_dims %k_mask_21 {axis = 0 : i32} : tensor<32xi32> -> tensor<1x32xi32> loc(#loc570)
      %k_mask_23 = tt.splat %seqlen_k : i32 -> tensor<1x32xi32> loc(#loc570)
      %k_mask_24 = arith.cmpi slt, %k_mask_22, %k_mask_23 : tensor<1x32xi32> loc(#loc570)
      %p_mask = tt.broadcast %q_mask_9 : tensor<128x1xi1> -> tensor<128x32xi1> loc(#loc571)
      %p_mask_25 = tt.broadcast %k_mask_24 : tensor<1x32xi1> -> tensor<128x32xi1> loc(#loc571)
      %p_mask_26 = arith.andi %p_mask, %p_mask_25 : tensor<128x32xi1> loc(#loc571)
      %qk_scale = arith.constant 1.44269502 : f32 loc(#loc572)
      %qk_scale_27 = arith.constant 1.44269502 : f32 loc(#loc572)
      %qk_scale_28 = arith.mulf %SM_SCALE, %qk_scale_27 : f32 loc(#loc572)
      %qk = tt.call @triton.language.standard.zeros__Tc128_c32T_cfp32() : () -> tensor<128x32xf32> loc(#loc573)
      %qk_29 = arith.constant 0.000000e+00 : f32 loc(#loc574)
      %qk_30 = arith.constant dense<0.000000e+00> : tensor<128x32xf32> loc(#loc574)
      %qk_31 = tt.dot %q_pe, %k_pe, %qk_30 : tensor<128x64xbf16> * tensor<64x32xbf16> -> tensor<128x32xf32> loc(#loc574)
      %qk_32 = arith.addf %qk, %qk_31 : tensor<128x32xf32> loc(#loc575)
      %qk_33 = arith.constant 0.000000e+00 : f32 loc(#loc576)
      %qk_34 = arith.constant dense<0.000000e+00> : tensor<128x32xf32> loc(#loc576)
      %qk_35 = tt.dot %q, %k, %qk_34 : tensor<128x128xbf16> * tensor<128x32xbf16> -> tensor<128x32xf32> loc(#loc576)
      %qk_36 = arith.addf %qk_32, %qk_35 : tensor<128x32xf32> loc(#loc577)
      %qk_37 = tt.splat %qk_scale_28 : f32 -> tensor<128x32xf32> loc(#loc578)
      %qk_38 = arith.mulf %qk_36, %qk_37 : tensor<128x32xf32> loc(#loc578)
      %qk_39 = arith.constant 0xFF800000 : f32 loc(#loc579)
      %qk_40 = arith.constant 0xFF800000 : f32 loc(#loc579)
      %qk_41 = arith.constant dense<0xFF800000> : tensor<128x32xf32> loc(#loc579)
      %qk_42 = arith.select %mask_7, %qk_38, %qk_41 : tensor<128x32xi1>, tensor<128x32xf32> loc(#loc579)
      %m_ij = tt.call @triton.language.standard.max__fp32S128_32S_c1_cFalse_cTrue_cFalse(%qk_42) : (tensor<128x32xf32>) -> tensor<128xf32> loc(#loc580)
      %m_ij_43 = arith.maxnumf %m_i_3, %m_ij : tensor<128xf32> loc(#loc581)
      %p = tt.expand_dims %m_ij_43 {axis = 1 : i32} : tensor<128xf32> -> tensor<128x1xf32> loc(#loc582)
      %p_44 = tt.broadcast %p : tensor<128x1xf32> -> tensor<128x32xf32> loc(#loc583)
      %p_45 = arith.subf %qk_42, %p_44 : tensor<128x32xf32> loc(#loc583)
      %p_46 = math.exp2 %p_45 : tensor<128x32xf32> loc(#loc584)
      %l_ij = tt.call @triton.language.standard.sum__fp32S128_32S_c1_cFalse_cNone(%p_46) : (tensor<128x32xf32>) -> tensor<128xf32> loc(#loc585)
      %alpha = arith.subf %m_i_3, %m_ij_43 : tensor<128xf32> loc(#loc586)
      %alpha_47 = math.exp2 %alpha : tensor<128xf32> loc(#loc587)
      %acc_48 = tt.expand_dims %alpha_47 {axis = 1 : i32} : tensor<128xf32> -> tensor<128x1xf32> loc(#loc588)
      %acc_49 = tt.broadcast %acc_48 : tensor<128x1xf32> -> tensor<128x128xf32> loc(#loc589)
      %acc_50 = arith.mulf %acc_1, %acc_49 : tensor<128x128xf32> loc(#loc589)
      %l_i_51 = arith.mulf %l_i_2, %alpha_47 : tensor<128xf32> loc(#loc590)
      %l_i_52 = arith.addf %l_i_51, %l_ij : tensor<128xf32> loc(#loc590)
      %acc_53 = arith.truncf %p_46 : tensor<128x32xf32> to tensor<128x32xbf16> loc(#loc591)
      %acc_54 = arith.constant 0.000000e+00 : f32 loc(#loc592)
      %acc_55 = arith.constant dense<0.000000e+00> : tensor<128x128xf32> loc(#loc592)
      %acc_56 = tt.dot %acc_53, %v, %acc_55 : tensor<128x32xbf16> * tensor<32x128xbf16> -> tensor<128x128xf32> loc(#loc592)
      %acc_57 = arith.addf %acc_50, %acc_56 : tensor<128x128xf32> loc(#loc593)
      %k_ptrs_58 = arith.constant 32 : i32 loc(#loc594)
      %k_ptrs_59 = arith.constant 32 : i64 loc(#loc594)
      %k_ptrs_60 = arith.muli %k_ptrs_59, %stride_kn : i64 loc(#loc594)
      %k_ptrs_61 = tt.splat %k_ptrs_60 : i64 -> tensor<128x32xi64> loc(#loc595)
      %k_ptrs_62 = tt.addptr %k_ptrs_4, %k_ptrs_61 : tensor<128x32x!tt.ptr<bf16>>, tensor<128x32xi64> loc(#loc595)
      %k_pe_ptrs_63 = arith.constant 32 : i32 loc(#loc596)
      %k_pe_ptrs_64 = arith.constant 32 : i64 loc(#loc596)
      %k_pe_ptrs_65 = arith.muli %k_pe_ptrs_64, %stride_kn : i64 loc(#loc596)
      %k_pe_ptrs_66 = tt.splat %k_pe_ptrs_65 : i64 -> tensor<64x32xi64> loc(#loc597)
      %k_pe_ptrs_67 = tt.addptr %k_pe_ptrs_5, %k_pe_ptrs_66 : tensor<64x32x!tt.ptr<bf16>>, tensor<64x32xi64> loc(#loc597)
      %v_ptrs_68 = arith.constant 32 : i32 loc(#loc598)
      %v_ptrs_69 = arith.constant 32 : i64 loc(#loc598)
      %v_ptrs_70 = arith.muli %v_ptrs_69, %stride_vk : i64 loc(#loc598)
      %v_ptrs_71 = tt.splat %v_ptrs_70 : i64 -> tensor<32x128xi64> loc(#loc599)
      %v_ptrs_72 = tt.addptr %v_ptrs_6, %v_ptrs_71 : tensor<32x128x!tt.ptr<bf16>>, tensor<32x128xi64> loc(#loc599)
      scf.yield %acc_57, %l_i_52, %m_ij_43, %k_ptrs_62, %k_pe_ptrs_67, %v_ptrs_72 : tensor<128x128xf32>, tensor<128xf32>, tensor<128xf32>, tensor<128x32x!tt.ptr<bf16>>, tensor<64x32x!tt.ptr<bf16>>, tensor<32x128x!tt.ptr<bf16>> loc(#loc252)
    } loc(#loc664)
    tt.return %v_ptrs_0#0, %v_ptrs_0#1, %v_ptrs_0#2 : tensor<128x128xf32>, tensor<128xf32>, tensor<128xf32> loc(#loc290)
  ^bb1:  // no predecessors
    %4 = ub.poison : tensor<128x128xf32> loc(#loc251)
    %5 = ub.poison : tensor<128xf32> loc(#loc251)
    %6 = ub.poison : tensor<128xf32> loc(#loc251)
    tt.return %4, %5, %6 : tensor<128x128xf32>, tensor<128xf32>, tensor<128xf32> loc(#loc251)
  } loc(#loc251)
  tt.func private @aiter.ops.triton._triton_kernels.attention.mha._load_fn__Pbf16S128_32S_cNone_cNone_c128_i32(%ptrs: tensor<128x32x!tt.ptr<bf16>> loc("ptrs"(#loc291)), %boundary_second: i32 loc("boundary_second"(#loc291))) -> tensor<128x32xbf16> attributes {noinline = false} {
    %tensor = tt.load %ptrs : tensor<128x32x!tt.ptr<bf16>> loc(#loc602)
    tt.return %tensor : tensor<128x32xbf16> loc(#loc293)
  ^bb1:  // no predecessors
    %0 = ub.poison : tensor<128x32xbf16> loc(#loc291)
    tt.return %0 : tensor<128x32xbf16> loc(#loc291)
  } loc(#loc291)
  tt.func private @aiter.ops.triton._triton_kernels.attention.mha._load_fn__Pbf16S64_32S_cNone_cNone_c192_i32(%ptrs: tensor<64x32x!tt.ptr<bf16>> loc("ptrs"(#loc291)), %boundary_second: i32 loc("boundary_second"(#loc291))) -> tensor<64x32xbf16> attributes {noinline = false} {
    %tensor = tt.load %ptrs : tensor<64x32x!tt.ptr<bf16>> loc(#loc602)
    tt.return %tensor : tensor<64x32xbf16> loc(#loc293)
  ^bb1:  // no predecessors
    %0 = ub.poison : tensor<64x32xbf16> loc(#loc291)
    tt.return %0 : tensor<64x32xbf16> loc(#loc291)
  } loc(#loc291)
  tt.func private @aiter.ops.triton._triton_kernels.attention.mha._load_fn__Pbf16S32_128S_cNone_cNone_i32_c128(%ptrs: tensor<32x128x!tt.ptr<bf16>> loc("ptrs"(#loc291)), %boundary_first: i32 loc("boundary_first"(#loc291))) -> tensor<32x128xbf16> attributes {noinline = false} {
    %tensor = tt.load %ptrs : tensor<32x128x!tt.ptr<bf16>> loc(#loc602)
    tt.return %tensor : tensor<32x128xbf16> loc(#loc293)
  ^bb1:  // no predecessors
    %0 = ub.poison : tensor<32x128xbf16> loc(#loc291)
    tt.return %0 : tensor<32x128xbf16> loc(#loc291)
  } loc(#loc291)
  tt.func private @triton.language.standard.zeros__Tc128_c32T_cfp32() -> tensor<128x32xf32> attributes {noinline = false} {
    %cst = arith.constant 0.000000e+00 : f32 loc(#loc249)
    %cst_0 = arith.constant dense<0.000000e+00> : tensor<128x32xf32> loc(#loc249)
    tt.return %cst_0 : tensor<128x32xf32> loc(#loc250)
  ^bb1:  // no predecessors
    %0 = ub.poison : tensor<128x32xf32> loc(#loc248)
    tt.return %0 : tensor<128x32xf32> loc(#loc248)
  } loc(#loc248)
  tt.func private @triton.language.standard.max__fp32S128_32S_c1_cFalse_cTrue_cFalse(%input: tensor<128x32xf32> loc("input"(#loc294))) -> tensor<128xf32> attributes {noinline = false} {
    %0 = "tt.reduce"(%input) <{axis = 1 : i32}> ({
    ^bb0(%arg1: f32 loc(unknown), %arg2: f32 loc(unknown)):
      %2 = tt.call @triton.language.standard._elementwise_max__fp32_fp32(%arg1, %arg2) : (f32, f32) -> f32 loc(#loc295)
      tt.reduce.return %2 : f32 loc(#loc295)
    }) : (tensor<128x32xf32>) -> tensor<128xf32> loc(#loc295)
    tt.return %0 : tensor<128xf32> loc(#loc297)
  ^bb1:  // no predecessors
    %1 = ub.poison : tensor<128xf32> loc(#loc294)
    tt.return %1 : tensor<128xf32> loc(#loc294)
  } loc(#loc294)
  tt.func private @triton.language.standard._elementwise_max__fp32_fp32(%a: f32 loc("a"(#loc298)), %b: f32 loc("b"(#loc298))) -> f32 attributes {noinline = false} {
    %0 = arith.maxnumf %a, %b : f32 loc(#loc299)
    tt.return %0 : f32 loc(#loc300)
  ^bb1:  // no predecessors
    %1 = ub.poison : f32 loc(#loc298)
    tt.return %1 : f32 loc(#loc298)
  } loc(#loc298)
  tt.func private @triton.language.standard.sum__fp32S128_32S_c1_cFalse_cNone(%input: tensor<128x32xf32> loc("input"(#loc301))) -> tensor<128xf32> attributes {noinline = false} {
    %0 = "tt.reduce"(%input) <{axis = 1 : i32}> ({
    ^bb0(%arg1: f32 loc(unknown), %arg2: f32 loc(unknown)):
      %2 = tt.call @triton.language.standard._sum_combine__fp32_fp32(%arg1, %arg2) : (f32, f32) -> f32 loc(#loc302)
      tt.reduce.return %2 : f32 loc(#loc302)
    }) : (tensor<128x32xf32>) -> tensor<128xf32> loc(#loc302)
    tt.return %0 : tensor<128xf32> loc(#loc303)
  ^bb1:  // no predecessors
    %1 = ub.poison : tensor<128xf32> loc(#loc301)
    tt.return %1 : tensor<128xf32> loc(#loc301)
  } loc(#loc301)
  tt.func private @triton.language.standard._sum_combine__fp32_fp32(%a: f32 loc("a"(#loc304)), %b: f32 loc("b"(#loc304))) -> f32 attributes {noinline = false} {
    %0 = arith.addf %a, %b : f32 loc(#loc305)
    tt.return %0 : f32 loc(#loc306)
  ^bb1:  // no predecessors
    %1 = ub.poison : f32 loc(#loc304)
    tt.return %1 : f32 loc(#loc304)
  } loc(#loc304)
  tt.func private @"aiter.ops.triton._triton_kernels.attention.mha._attn_fwd_inner__fp32S128_128S_fp32S128S_fp32S128S_bf16S128_128S_bf16S128_64S_Pbf16S128_32S_Pbf16S64_32S_Pbf16S32_128S_i64_i64_i64_i32_i32_i32_fp32_cNone_cNone_i32_cNone_i32_i32_i32S32S_i32_i32_cNone_fp32_fp32_fp32_i32S128S_i32S32S_cTrue_c128_c32_c128_c128_c64_fp32_cTrue_cTrue_cFalse_cFalse_cFalse_cFalse_c3.3895313892515355e+38_cFalse"(%acc: tensor<128x128xf32> loc("acc"(#loc251)), %l_i: tensor<128xf32> loc("l_i"(#loc251)), %m_i: tensor<128xf32> loc("m_i"(#loc251)), %q: tensor<128x128xbf16> loc("q"(#loc251)), %q_pe: tensor<128x64xbf16> loc("q_pe"(#loc251)), %k_ptrs: tensor<128x32x!tt.ptr<bf16>> loc("k_ptrs"(#loc251)), %k_pe_ptrs: tensor<64x32x!tt.ptr<bf16>> loc("k_pe_ptrs"(#loc251)), %v_ptrs: tensor<32x128x!tt.ptr<bf16>> loc("v_ptrs"(#loc251)), %stride_kn: i64 loc("stride_kn"(#loc251)), %stride_vk: i64 loc("stride_vk"(#loc251)), %stride_sn: i64 loc("stride_sn"(#loc251)), %start_m: i32 loc("start_m"(#loc251)), %seqlen_k: i32 loc("seqlen_k"(#loc251)), %seqlen_q: i32 loc("seqlen_q"(#loc251)), %dropout_p: f32 loc("dropout_p"(#loc251)), %philox_seed: i32 loc("philox_seed"(#loc251)), %block_min: i32 loc("block_min"(#loc251)), %block_max: i32 loc("block_max"(#loc251)), %offs_n_causal: tensor<32xi32> loc("offs_n_causal"(#loc251)), %masked_blocks: i32 loc("masked_blocks"(#loc251)), %n_extra_tokens: i32 loc("n_extra_tokens"(#loc251)), %descale_q: f32 loc("descale_q"(#loc251)), %descale_k: f32 loc("descale_k"(#loc251)), %descale_v: f32 loc("descale_v"(#loc251)), %OFFS_M: tensor<128xi32> loc("OFFS_M"(#loc251)), %OFFS_N: tensor<32xi32> loc("OFFS_N"(#loc251)), %SM_SCALE: f32 loc("SM_SCALE"(#loc251))) -> (tensor<128x128xf32>, tensor<128xf32>, tensor<128xf32>) attributes {noinline = false} {
    %c32_i32 = arith.constant 32 : i32 loc(#loc252)
    %0 = arith.bitcast %block_min : i32 to i32 loc(#loc252)
    %1 = arith.bitcast %block_max : i32 to i32 loc(#loc252)
    %2 = arith.bitcast %c32_i32 : i32 to i32 loc(#loc252)
    %3 = ub.poison : i32 loc(#loc252)
    %v_ptrs_0:6 = scf.for %start_n = %0 to %1 step %2 iter_args(%acc_1 = %acc, %l_i_2 = %l_i, %m_i_3 = %m_i, %k_ptrs_4 = %k_ptrs, %k_pe_ptrs_5 = %k_pe_ptrs, %v_ptrs_6 = %v_ptrs) -> (tensor<128x128xf32>, tensor<128xf32>, tensor<128xf32>, tensor<128x32x!tt.ptr<bf16>>, tensor<64x32x!tt.ptr<bf16>>, tensor<32x128x!tt.ptr<bf16>>)  : i32 {
      %k_offs_n = tt.make_range {end = 32 : i32, start = 0 : i32} : tensor<32xi32> loc(#loc613)
      %k_offs_n_7 = tt.splat %start_n : i32 -> tensor<32xi32> loc(#loc614)
      %k_offs_n_8 = arith.extsi %k_offs_n_7 : tensor<32xi32> to tensor<32xi64> loc(#loc614)
      %k_offs_n_9 = arith.extsi %k_offs_n : tensor<32xi32> to tensor<32xi64> loc(#loc614)
      %k_offs_n_10 = arith.addi %k_offs_n_8, %k_offs_n_9 : tensor<32xi64> loc(#loc614)
      %k_offs_n_11 = arith.constant 2147483647 : i64 loc(#loc614)
      %k_offs_n_12 = arith.constant -2147483648 : i64 loc(#loc614)
      %k_offs_n_13 = arith.constant dense<2147483647> : tensor<32xi64> loc(#loc614)
      %k_offs_n_14 = arith.cmpi sle, %k_offs_n_10, %k_offs_n_13 : tensor<32xi64> loc(#loc614)
      %k_offs_n_15 = arith.constant dense<-2147483648> : tensor<32xi64> loc(#loc614)
      %k_offs_n_16 = arith.cmpi sge, %k_offs_n_10, %k_offs_n_15 : tensor<32xi64> loc(#loc614)
      %k_offs_n_17 = arith.andi %k_offs_n_14, %k_offs_n_16 : tensor<32xi1> loc(#loc614)
      %k_offs_n_18 = arith.addi %k_offs_n_7, %k_offs_n : tensor<32xi32> loc(#loc614)
      %k = tt.call @aiter.ops.triton._triton_kernels.attention.mha._load_fn__Pbf16S128_32S_cNone_i32S32S_c128_i32(%k_ptrs_4, %k_offs_n_18, %seqlen_k) : (tensor<128x32x!tt.ptr<bf16>>, tensor<32xi32>, i32) -> tensor<128x32xbf16> loc(#loc563)
      %k_pe = tt.call @aiter.ops.triton._triton_kernels.attention.mha._load_fn__Pbf16S64_32S_cNone_i32S32S_c192_i32(%k_pe_ptrs_5, %k_offs_n_18, %seqlen_k) : (tensor<64x32x!tt.ptr<bf16>>, tensor<32xi32>, i32) -> tensor<64x32xbf16> loc(#loc564)
      %v = tt.call @aiter.ops.triton._triton_kernels.attention.mha._load_fn__Pbf16S32_128S_i32S32S_cNone_i32_c128(%v_ptrs_6, %k_offs_n_18, %seqlen_k) : (tensor<32x128x!tt.ptr<bf16>>, tensor<32xi32>, i32) -> tensor<32x128xbf16> loc(#loc565)
      %mask = arith.constant true loc(#loc566)
      %mask_19 = arith.constant dense<true> : tensor<128x32xi1> loc(#loc566)
      %bound_cond = arith.constant 32 : i32 loc(#loc615)
      %bound_cond_20 = arith.constant 32 : i32 loc(#loc615)
      %bound_cond_21 = arith.extsi %start_n : i32 to i64 loc(#loc615)
      %bound_cond_22 = arith.extsi %bound_cond_20 : i32 to i64 loc(#loc615)
      %bound_cond_23 = arith.addi %bound_cond_21, %bound_cond_22 : i64 loc(#loc615)
      %bound_cond_24 = arith.constant 2147483647 : i64 loc(#loc615)
      %bound_cond_25 = arith.constant -2147483648 : i64 loc(#loc615)
      %bound_cond_26 = arith.cmpi sle, %bound_cond_23, %bound_cond_24 : i64 loc(#loc615)
      %bound_cond_27 = arith.cmpi sge, %bound_cond_23, %bound_cond_25 : i64 loc(#loc615)
      %bound_cond_28 = arith.andi %bound_cond_26, %bound_cond_27 : i1 loc(#loc615)
      %bound_cond_29 = arith.addi %start_n, %bound_cond_20 : i32 loc(#loc615)
      %bound_cond_30 = arith.cmpi eq, %bound_cond_29, %block_max : i32 loc(#loc615)
      %bound_cond_31 = arith.constant 0 : i32 loc(#loc616)
      %bound_cond_32 = arith.cmpi ne, %n_extra_tokens, %bound_cond_31 : i32 loc(#loc616)
      %bound_cond_33 = arith.andi %bound_cond_30, %bound_cond_32 : i1 loc(#loc617)
      %size_n = tt.expand_dims %OFFS_N {axis = 0 : i32} : tensor<32xi32> -> tensor<1x32xi32> loc(#loc618)
      %size_n_34 = tt.splat %start_n : i32 -> tensor<1x32xi32> loc(#loc619)
      %size_n_35 = arith.extsi %size_n_34 : tensor<1x32xi32> to tensor<1x32xi64> loc(#loc619)
      %size_n_36 = arith.extsi %size_n : tensor<1x32xi32> to tensor<1x32xi64> loc(#loc619)
      %size_n_37 = arith.addi %size_n_35, %size_n_36 : tensor<1x32xi64> loc(#loc619)
      %size_n_38 = arith.constant 2147483647 : i64 loc(#loc619)
      %size_n_39 = arith.constant -2147483648 : i64 loc(#loc619)
      %size_n_40 = arith.constant dense<2147483647> : tensor<1x32xi64> loc(#loc619)
      %size_n_41 = arith.cmpi sle, %size_n_37, %size_n_40 : tensor<1x32xi64> loc(#loc619)
      %size_n_42 = arith.constant dense<-2147483648> : tensor<1x32xi64> loc(#loc619)
      %size_n_43 = arith.cmpi sge, %size_n_37, %size_n_42 : tensor<1x32xi64> loc(#loc619)
      %size_n_44 = arith.andi %size_n_41, %size_n_43 : tensor<1x32xi1> loc(#loc619)
      %size_n_45 = arith.addi %size_n_34, %size_n : tensor<1x32xi32> loc(#loc619)
      %mask_partial = tt.splat %seqlen_k : i32 -> tensor<1x32xi32> loc(#loc620)
      %mask_partial_46 = arith.cmpi slt, %size_n_45, %mask_partial : tensor<1x32xi32> loc(#loc620)
      %mask_47 = tt.broadcast %mask_partial_46 : tensor<1x32xi1> -> tensor<128x32xi1> loc(#loc621)
      %mask_48 = tt.splat %bound_cond_33 : i1 -> tensor<128x32xi1> loc(#loc621)
      %mask_49 = arith.select %mask_48, %mask_47, %mask_19 : tensor<128x32xi1>, tensor<128x32xi1> loc(#loc621)
      %q_mask = tt.expand_dims %OFFS_M {axis = 1 : i32} : tensor<128xi32> -> tensor<128x1xi32> loc(#loc567)
      %q_mask_50 = tt.splat %seqlen_q : i32 -> tensor<128x1xi32> loc(#loc567)
      %q_mask_51 = arith.cmpi slt, %q_mask, %q_mask_50 : tensor<128x1xi32> loc(#loc567)
      %k_mask = tt.make_range {end = 32 : i32, start = 0 : i32} : tensor<32xi32> loc(#loc568)
      %k_mask_52 = tt.splat %start_n : i32 -> tensor<32xi32> loc(#loc569)
      %k_mask_53 = arith.extsi %k_mask_52 : tensor<32xi32> to tensor<32xi64> loc(#loc569)
      %k_mask_54 = arith.extsi %k_mask : tensor<32xi32> to tensor<32xi64> loc(#loc569)
      %k_mask_55 = arith.addi %k_mask_53, %k_mask_54 : tensor<32xi64> loc(#loc569)
      %k_mask_56 = arith.constant 2147483647 : i64 loc(#loc569)
      %k_mask_57 = arith.constant -2147483648 : i64 loc(#loc569)
      %k_mask_58 = arith.constant dense<2147483647> : tensor<32xi64> loc(#loc569)
      %k_mask_59 = arith.cmpi sle, %k_mask_55, %k_mask_58 : tensor<32xi64> loc(#loc569)
      %k_mask_60 = arith.constant dense<-2147483648> : tensor<32xi64> loc(#loc569)
      %k_mask_61 = arith.cmpi sge, %k_mask_55, %k_mask_60 : tensor<32xi64> loc(#loc569)
      %k_mask_62 = arith.andi %k_mask_59, %k_mask_61 : tensor<32xi1> loc(#loc569)
      %k_mask_63 = arith.addi %k_mask_52, %k_mask : tensor<32xi32> loc(#loc569)
      %k_mask_64 = tt.expand_dims %k_mask_63 {axis = 0 : i32} : tensor<32xi32> -> tensor<1x32xi32> loc(#loc570)
      %k_mask_65 = tt.splat %seqlen_k : i32 -> tensor<1x32xi32> loc(#loc570)
      %k_mask_66 = arith.cmpi slt, %k_mask_64, %k_mask_65 : tensor<1x32xi32> loc(#loc570)
      %p_mask = tt.broadcast %q_mask_51 : tensor<128x1xi1> -> tensor<128x32xi1> loc(#loc571)
      %p_mask_67 = tt.broadcast %k_mask_66 : tensor<1x32xi1> -> tensor<128x32xi1> loc(#loc571)
      %p_mask_68 = arith.andi %p_mask, %p_mask_67 : tensor<128x32xi1> loc(#loc571)
      %qk_scale = arith.constant 1.44269502 : f32 loc(#loc572)
      %qk_scale_69 = arith.constant 1.44269502 : f32 loc(#loc572)
      %qk_scale_70 = arith.mulf %SM_SCALE, %qk_scale_69 : f32 loc(#loc572)
      %qk = tt.call @triton.language.standard.zeros__Tc128_c32T_cfp32() : () -> tensor<128x32xf32> loc(#loc573)
      %qk_71 = arith.constant 0.000000e+00 : f32 loc(#loc574)
      %qk_72 = arith.constant dense<0.000000e+00> : tensor<128x32xf32> loc(#loc574)
      %qk_73 = tt.dot %q_pe, %k_pe, %qk_72 : tensor<128x64xbf16> * tensor<64x32xbf16> -> tensor<128x32xf32> loc(#loc574)
      %qk_74 = arith.addf %qk, %qk_73 : tensor<128x32xf32> loc(#loc575)
      %qk_75 = arith.constant 0.000000e+00 : f32 loc(#loc576)
      %qk_76 = arith.constant dense<0.000000e+00> : tensor<128x32xf32> loc(#loc576)
      %qk_77 = tt.dot %q, %k, %qk_76 : tensor<128x128xbf16> * tensor<128x32xbf16> -> tensor<128x32xf32> loc(#loc576)
      %qk_78 = arith.addf %qk_74, %qk_77 : tensor<128x32xf32> loc(#loc577)
      %qk_79 = tt.splat %qk_scale_70 : f32 -> tensor<128x32xf32> loc(#loc578)
      %qk_80 = arith.mulf %qk_78, %qk_79 : tensor<128x32xf32> loc(#loc578)
      %causal_boundary = tt.splat %start_n : i32 -> tensor<32xi32> loc(#loc622)
      %causal_boundary_81 = arith.extsi %causal_boundary : tensor<32xi32> to tensor<32xi64> loc(#loc622)
      %causal_boundary_82 = arith.extsi %offs_n_causal : tensor<32xi32> to tensor<32xi64> loc(#loc622)
      %causal_boundary_83 = arith.addi %causal_boundary_81, %causal_boundary_82 : tensor<32xi64> loc(#loc622)
      %causal_boundary_84 = arith.constant 2147483647 : i64 loc(#loc622)
      %causal_boundary_85 = arith.constant -2147483648 : i64 loc(#loc622)
      %causal_boundary_86 = arith.constant dense<2147483647> : tensor<32xi64> loc(#loc622)
      %causal_boundary_87 = arith.cmpi sle, %causal_boundary_83, %causal_boundary_86 : tensor<32xi64> loc(#loc622)
      %causal_boundary_88 = arith.constant dense<-2147483648> : tensor<32xi64> loc(#loc622)
      %causal_boundary_89 = arith.cmpi sge, %causal_boundary_83, %causal_boundary_88 : tensor<32xi64> loc(#loc622)
      %causal_boundary_90 = arith.andi %causal_boundary_87, %causal_boundary_89 : tensor<32xi1> loc(#loc622)
      %causal_boundary_91 = arith.addi %causal_boundary, %offs_n_causal : tensor<32xi32> loc(#loc622)
      %causal_mask = tt.expand_dims %OFFS_M {axis = 1 : i32} : tensor<128xi32> -> tensor<128x1xi32> loc(#loc623)
      %causal_mask_92 = tt.expand_dims %causal_boundary_91 {axis = 0 : i32} : tensor<32xi32> -> tensor<1x32xi32> loc(#loc624)
      %causal_mask_93 = tt.broadcast %causal_mask : tensor<128x1xi32> -> tensor<128x32xi32> loc(#loc623)
      %causal_mask_94 = tt.broadcast %causal_mask_92 : tensor<1x32xi32> -> tensor<128x32xi32> loc(#loc623)
      %causal_mask_95 = arith.cmpi sge, %causal_mask_93, %causal_mask_94 : tensor<128x32xi32> loc(#loc623)
      %mask_96 = arith.andi %mask_49, %causal_mask_95 : tensor<128x32xi1> loc(#loc625)
      %qk_97 = arith.constant 0xFF800000 : f32 loc(#loc579)
      %qk_98 = arith.constant 0xFF800000 : f32 loc(#loc579)
      %qk_99 = arith.constant dense<0xFF800000> : tensor<128x32xf32> loc(#loc579)
      %qk_100 = arith.select %mask_96, %qk_80, %qk_99 : tensor<128x32xi1>, tensor<128x32xf32> loc(#loc579)
      %m_ij = tt.call @triton.language.standard.max__fp32S128_32S_c1_cFalse_cTrue_cFalse(%qk_100) : (tensor<128x32xf32>) -> tensor<128xf32> loc(#loc580)
      %m_ij_101 = arith.maxnumf %m_i_3, %m_ij : tensor<128xf32> loc(#loc581)
      %p = tt.expand_dims %m_ij_101 {axis = 1 : i32} : tensor<128xf32> -> tensor<128x1xf32> loc(#loc582)
      %p_102 = tt.broadcast %p : tensor<128x1xf32> -> tensor<128x32xf32> loc(#loc583)
      %p_103 = arith.subf %qk_100, %p_102 : tensor<128x32xf32> loc(#loc583)
      %p_104 = math.exp2 %p_103 : tensor<128x32xf32> loc(#loc584)
      %l_ij = tt.call @triton.language.standard.sum__fp32S128_32S_c1_cFalse_cNone(%p_104) : (tensor<128x32xf32>) -> tensor<128xf32> loc(#loc585)
      %alpha = arith.subf %m_i_3, %m_ij_101 : tensor<128xf32> loc(#loc586)
      %alpha_105 = math.exp2 %alpha : tensor<128xf32> loc(#loc587)
      %acc_106 = tt.expand_dims %alpha_105 {axis = 1 : i32} : tensor<128xf32> -> tensor<128x1xf32> loc(#loc588)
      %acc_107 = tt.broadcast %acc_106 : tensor<128x1xf32> -> tensor<128x128xf32> loc(#loc589)
      %acc_108 = arith.mulf %acc_1, %acc_107 : tensor<128x128xf32> loc(#loc589)
      %l_i_109 = arith.mulf %l_i_2, %alpha_105 : tensor<128xf32> loc(#loc590)
      %l_i_110 = arith.addf %l_i_109, %l_ij : tensor<128xf32> loc(#loc590)
      %acc_111 = arith.truncf %p_104 : tensor<128x32xf32> to tensor<128x32xbf16> loc(#loc591)
      %acc_112 = arith.constant 0.000000e+00 : f32 loc(#loc592)
      %acc_113 = arith.constant dense<0.000000e+00> : tensor<128x128xf32> loc(#loc592)
      %acc_114 = tt.dot %acc_111, %v, %acc_113 : tensor<128x32xbf16> * tensor<32x128xbf16> -> tensor<128x128xf32> loc(#loc592)
      %acc_115 = arith.addf %acc_108, %acc_114 : tensor<128x128xf32> loc(#loc593)
      %k_ptrs_116 = arith.constant 32 : i32 loc(#loc594)
      %k_ptrs_117 = arith.constant 32 : i64 loc(#loc594)
      %k_ptrs_118 = arith.muli %k_ptrs_117, %stride_kn : i64 loc(#loc594)
      %k_ptrs_119 = tt.splat %k_ptrs_118 : i64 -> tensor<128x32xi64> loc(#loc595)
      %k_ptrs_120 = tt.addptr %k_ptrs_4, %k_ptrs_119 : tensor<128x32x!tt.ptr<bf16>>, tensor<128x32xi64> loc(#loc595)
      %k_pe_ptrs_121 = arith.constant 32 : i32 loc(#loc596)
      %k_pe_ptrs_122 = arith.constant 32 : i64 loc(#loc596)
      %k_pe_ptrs_123 = arith.muli %k_pe_ptrs_122, %stride_kn : i64 loc(#loc596)
      %k_pe_ptrs_124 = tt.splat %k_pe_ptrs_123 : i64 -> tensor<64x32xi64> loc(#loc597)
      %k_pe_ptrs_125 = tt.addptr %k_pe_ptrs_5, %k_pe_ptrs_124 : tensor<64x32x!tt.ptr<bf16>>, tensor<64x32xi64> loc(#loc597)
      %v_ptrs_126 = arith.constant 32 : i32 loc(#loc598)
      %v_ptrs_127 = arith.constant 32 : i64 loc(#loc598)
      %v_ptrs_128 = arith.muli %v_ptrs_127, %stride_vk : i64 loc(#loc598)
      %v_ptrs_129 = tt.splat %v_ptrs_128 : i64 -> tensor<32x128xi64> loc(#loc599)
      %v_ptrs_130 = tt.addptr %v_ptrs_6, %v_ptrs_129 : tensor<32x128x!tt.ptr<bf16>>, tensor<32x128xi64> loc(#loc599)
      scf.yield %acc_115, %l_i_110, %m_ij_101, %k_ptrs_120, %k_pe_ptrs_125, %v_ptrs_130 : tensor<128x128xf32>, tensor<128xf32>, tensor<128xf32>, tensor<128x32x!tt.ptr<bf16>>, tensor<64x32x!tt.ptr<bf16>>, tensor<32x128x!tt.ptr<bf16>> loc(#loc252)
    } {tt.num_stages = 1 : i32} loc(#loc664)
    tt.return %v_ptrs_0#0, %v_ptrs_0#1, %v_ptrs_0#2 : tensor<128x128xf32>, tensor<128xf32>, tensor<128xf32> loc(#loc290)
  ^bb1:  // no predecessors
    %4 = ub.poison : tensor<128x128xf32> loc(#loc251)
    %5 = ub.poison : tensor<128xf32> loc(#loc251)
    %6 = ub.poison : tensor<128xf32> loc(#loc251)
    tt.return %4, %5, %6 : tensor<128x128xf32>, tensor<128xf32>, tensor<128xf32> loc(#loc251)
  } loc(#loc251)
  tt.func private @aiter.ops.triton._triton_kernels.attention.mha._load_fn__Pbf16S128_32S_cNone_i32S32S_c128_i32(%ptrs: tensor<128x32x!tt.ptr<bf16>> loc("ptrs"(#loc291)), %offset_second: tensor<32xi32> loc("offset_second"(#loc291)), %boundary_second: i32 loc("boundary_second"(#loc291))) -> tensor<128x32xbf16> attributes {noinline = false} {
    %mask = tt.expand_dims %offset_second {axis = 0 : i32} : tensor<32xi32> -> tensor<1x32xi32> loc(#loc627)
    %mask_0 = tt.splat %boundary_second : i32 -> tensor<1x32xi32> loc(#loc627)
    %mask_1 = arith.cmpi slt, %mask, %mask_0 : tensor<1x32xi32> loc(#loc627)
    %tensor = arith.constant 0.000000e+00 : f32 loc(#loc628)
    %tensor_2 = tt.broadcast %mask_1 : tensor<1x32xi1> -> tensor<128x32xi1> loc(#loc628)
    %tensor_3 = arith.constant dense<0.000000e+00> : tensor<128x32xf32> loc(#loc628)
    %tensor_4 = arith.truncf %tensor_3 : tensor<128x32xf32> to tensor<128x32xbf16> loc(#loc628)
    %tensor_5 = tt.load %ptrs, %tensor_2, %tensor_4 : tensor<128x32x!tt.ptr<bf16>> loc(#loc628)
    tt.return %tensor_5 : tensor<128x32xbf16> loc(#loc293)
  ^bb1:  // no predecessors
    %0 = ub.poison : tensor<128x32xbf16> loc(#loc291)
    tt.return %0 : tensor<128x32xbf16> loc(#loc291)
  } loc(#loc291)
  tt.func private @aiter.ops.triton._triton_kernels.attention.mha._load_fn__Pbf16S64_32S_cNone_i32S32S_c192_i32(%ptrs: tensor<64x32x!tt.ptr<bf16>> loc("ptrs"(#loc291)), %offset_second: tensor<32xi32> loc("offset_second"(#loc291)), %boundary_second: i32 loc("boundary_second"(#loc291))) -> tensor<64x32xbf16> attributes {noinline = false} {
    %mask = tt.expand_dims %offset_second {axis = 0 : i32} : tensor<32xi32> -> tensor<1x32xi32> loc(#loc627)
    %mask_0 = tt.splat %boundary_second : i32 -> tensor<1x32xi32> loc(#loc627)
    %mask_1 = arith.cmpi slt, %mask, %mask_0 : tensor<1x32xi32> loc(#loc627)
    %tensor = arith.constant 0.000000e+00 : f32 loc(#loc628)
    %tensor_2 = tt.broadcast %mask_1 : tensor<1x32xi1> -> tensor<64x32xi1> loc(#loc628)
    %tensor_3 = arith.constant dense<0.000000e+00> : tensor<64x32xf32> loc(#loc628)
    %tensor_4 = arith.truncf %tensor_3 : tensor<64x32xf32> to tensor<64x32xbf16> loc(#loc628)
    %tensor_5 = tt.load %ptrs, %tensor_2, %tensor_4 : tensor<64x32x!tt.ptr<bf16>> loc(#loc628)
    tt.return %tensor_5 : tensor<64x32xbf16> loc(#loc293)
  ^bb1:  // no predecessors
    %0 = ub.poison : tensor<64x32xbf16> loc(#loc291)
    tt.return %0 : tensor<64x32xbf16> loc(#loc291)
  } loc(#loc291)
  tt.func private @aiter.ops.triton._triton_kernels.attention.mha._load_fn__Pbf16S32_128S_i32S32S_cNone_i32_c128(%ptrs: tensor<32x128x!tt.ptr<bf16>> loc("ptrs"(#loc291)), %offset_first: tensor<32xi32> loc("offset_first"(#loc291)), %boundary_first: i32 loc("boundary_first"(#loc291))) -> tensor<32x128xbf16> attributes {noinline = false} {
    %mask = tt.expand_dims %offset_first {axis = 1 : i32} : tensor<32xi32> -> tensor<32x1xi32> loc(#loc630)
    %mask_0 = tt.splat %boundary_first : i32 -> tensor<32x1xi32> loc(#loc630)
    %mask_1 = arith.cmpi slt, %mask, %mask_0 : tensor<32x1xi32> loc(#loc630)
    %tensor = arith.constant 0.000000e+00 : f32 loc(#loc631)
    %tensor_2 = tt.broadcast %mask_1 : tensor<32x1xi1> -> tensor<32x128xi1> loc(#loc631)
    %tensor_3 = arith.constant dense<0.000000e+00> : tensor<32x128xf32> loc(#loc631)
    %tensor_4 = arith.truncf %tensor_3 : tensor<32x128xf32> to tensor<32x128xbf16> loc(#loc631)
    %tensor_5 = tt.load %ptrs, %tensor_2, %tensor_4 : tensor<32x128x!tt.ptr<bf16>> loc(#loc631)
    tt.return %tensor_5 : tensor<32x128xbf16> loc(#loc293)
  ^bb1:  // no predecessors
    %0 = ub.poison : tensor<32x128xbf16> loc(#loc291)
    tt.return %0 : tensor<32x128xbf16> loc(#loc291)
  } loc(#loc291)
} loc(#loc)
#loc1 = loc("/workspace/projects/aiter/aiter/ops/triton/_triton_kernels/attention/mha.py":391:19)
#loc2 = loc("/workspace/projects/aiter/aiter/ops/triton/_triton_kernels/attention/mha.py":391:18)
#loc3 = loc("/workspace/projects/aiter/aiter/ops/triton/_triton_kernels/attention/mha.py":393:11)
#loc4 = loc("/workspace/projects/aiter/aiter/ops/triton/_triton_kernels/attention/mha.py":398:18)
#loc5 = loc("/workspace/projects/aiter/aiter/ops/triton/_triton_kernels/attention/mha.py":399:18)
#loc6 = loc("/workspace/projects/aiter/aiter/ops/triton/_triton_kernels/attention/mha.py":400:16)
#loc7 = loc("/workspace/projects/aiter/aiter/ops/triton/_triton_kernels/attention/mha.py":400:15)
#loc8 = loc("/workspace/projects/aiter/aiter/ops/triton/_triton_kernels/attention/mha.py":401:22)
#loc9 = loc("/workspace/projects/aiter/aiter/ops/triton/_triton_kernels/attention/mha.py":401:14)
#loc10 = loc("/workspace/projects/aiter/aiter/ops/triton/_triton_kernels/attention/mha.py":401:13)
#loc11 = loc("/workspace/projects/aiter/aiter/ops/triton/_triton_kernels/attention/mha.py":404:14)
#loc12 = loc("/workspace/projects/aiter/aiter/ops/triton/_triton_kernels/attention/mha.py":404:34)
#loc13 = loc("/workspace/projects/aiter/aiter/ops/triton/_triton_kernels/attention/mha.py":405:14)
#loc14 = loc("/workspace/projects/aiter/aiter/ops/triton/_triton_kernels/attention/mha.py":406:14)
#loc15 = loc("/workspace/projects/aiter/aiter/ops/triton/_triton_kernels/attention/mha.py":409:34)
#loc16 = loc("/workspace/projects/aiter/aiter/ops/triton/_triton_kernels/attention/mha.py":409:19)
#loc17 = loc("/workspace/projects/aiter/aiter/ops/triton/_triton_kernels/attention/mha.py":421:21)
#loc18 = loc("/workspace/projects/aiter/aiter/ops/triton/_triton_kernels/attention/mha.py":422:21)
#loc19 = loc("/workspace/projects/aiter/aiter/ops/triton/_triton_kernels/attention/mha.py":423:21)
#loc20 = loc("/workspace/projects/aiter/aiter/ops/triton/_triton_kernels/attention/mha.py":424:21)
#loc21 = loc("/workspace/projects/aiter/aiter/ops/triton/_triton_kernels/attention/mha.py":425:21)
#loc22 = loc("/workspace/projects/aiter/aiter/ops/triton/_triton_kernels/attention/mha.py":426:21)
#loc23 = loc("/workspace/projects/aiter/aiter/ops/triton/_triton_kernels/attention/mha.py":427:21)
#loc24 = loc("/workspace/projects/aiter/aiter/ops/triton/_triton_kernels/attention/mha.py":428:21)
#loc25 = loc("/workspace/projects/aiter/aiter/ops/triton/_triton_kernels/attention/mha.py":429:21)
#loc26 = loc("/workspace/projects/aiter/aiter/ops/triton/_triton_kernels/attention/mha.py":430:21)
#loc27 = loc("/workspace/projects/aiter/aiter/ops/triton/_triton_kernels/attention/mha.py":431:21)
#loc28 = loc("/workspace/projects/aiter/aiter/ops/triton/_triton_kernels/attention/mha.py":432:21)
#loc29 = loc("/workspace/projects/aiter/aiter/ops/triton/_triton_kernels/attention/mha.py":437:21)
#loc30 = loc("/workspace/projects/aiter/aiter/ops/triton/_triton_kernels/attention/mha.py":438:21)
#loc31 = loc("/workspace/projects/aiter/aiter/ops/triton/_triton_kernels/attention/mha.py":439:21)
#loc32 = loc("/workspace/projects/aiter/aiter/ops/triton/_triton_kernels/attention/mha.py":440:21)
#loc33 = loc("/workspace/projects/aiter/aiter/ops/triton/_triton_kernels/attention/mha.py":441:26)
#loc34 = loc("/workspace/projects/aiter/aiter/ops/triton/_triton_kernels/attention/mha.py":442:26)
#loc35 = loc("/workspace/projects/aiter/aiter/ops/triton/_triton_kernels/attention/mha.py":445:30)
#loc36 = loc("/workspace/projects/aiter/aiter/ops/triton/_triton_kernels/attention/mha.py":446:23)
#loc37 = loc("/workspace/projects/aiter/aiter/ops/triton/_triton_kernels/attention/mha.py":447:23)
#loc38 = loc("/workspace/projects/aiter/aiter/ops/triton/_triton_kernels/attention/mha.py":448:23)
#loc39 = loc("/workspace/projects/aiter/aiter/ops/triton/_triton_kernels/attention/mha.py":449:23)
#loc40 = loc("/workspace/projects/aiter/aiter/ops/triton/_triton_kernels/attention/mha.py":450:24)
#loc41 = loc("/workspace/projects/aiter/aiter/ops/triton/_triton_kernels/attention/mha.py":451:24)
#loc42 = loc("/workspace/projects/aiter/aiter/ops/triton/_triton_kernels/attention/mha.py":452:24)
#loc43 = loc("/workspace/projects/aiter/aiter/ops/triton/_triton_kernels/attention/mha.py":484:15)
#loc44 = loc("/workspace/projects/aiter/aiter/ops/triton/_triton_kernels/attention/mha.py":484:5)
#loc45 = loc("/workspace/projects/aiter/aiter/ops/triton/_triton_kernels/attention/mha.py":485:15)
#loc46 = loc("/workspace/projects/aiter/aiter/ops/triton/_triton_kernels/attention/mha.py":485:5)
#loc47 = loc("/workspace/projects/aiter/aiter/ops/triton/_triton_kernels/attention/mha.py":486:15)
#loc48 = loc("/workspace/projects/aiter/aiter/ops/triton/_triton_kernels/attention/mha.py":486:5)
#loc49 = loc("/workspace/projects/aiter/aiter/ops/triton/_triton_kernels/attention/mha.py":487:5)
#loc50 = loc("/workspace/projects/aiter/aiter/ops/triton/_triton_kernels/attention/mha.py":488:15)
#loc51 = loc("/workspace/projects/aiter/aiter/ops/triton/_triton_kernels/attention/mha.py":488:5)
#loc52 = loc("/workspace/projects/aiter/aiter/ops/triton/_triton_kernels/attention/mha.py":489:15)
#loc53 = loc("/workspace/projects/aiter/aiter/ops/triton/_triton_kernels/attention/mha.py":489:5)
#loc54 = loc("/workspace/projects/aiter/aiter/ops/triton/_triton_kernels/attention/mha.py":490:15)
#loc55 = loc("/workspace/projects/aiter/aiter/ops/triton/_triton_kernels/attention/mha.py":490:5)
#loc56 = loc("/workspace/projects/aiter/aiter/ops/triton/_triton_kernels/attention/mha.py":491:5)
#loc57 = loc("/workspace/projects/aiter/aiter/ops/triton/_triton_kernels/attention/mha.py":492:15)
#loc58 = loc("/workspace/projects/aiter/aiter/ops/triton/_triton_kernels/attention/mha.py":492:5)
#loc59 = loc("/workspace/projects/aiter/aiter/ops/triton/_triton_kernels/attention/mha.py":493:15)
#loc60 = loc("/workspace/projects/aiter/aiter/ops/triton/_triton_kernels/attention/mha.py":493:5)
#loc61 = loc("/workspace/projects/aiter/aiter/ops/triton/_triton_kernels/attention/mha.py":494:15)
#loc62 = loc("/workspace/projects/aiter/aiter/ops/triton/_triton_kernels/attention/mha.py":494:5)
#loc63 = loc("/workspace/projects/aiter/aiter/ops/triton/_triton_kernels/attention/mha.py":495:5)
#loc64 = loc("/workspace/projects/aiter/aiter/ops/triton/_triton_kernels/attention/mha.py":507:15)
#loc65 = loc("/workspace/projects/aiter/aiter/ops/triton/_triton_kernels/attention/mha.py":507:5)
#loc66 = loc("/workspace/projects/aiter/aiter/ops/triton/_triton_kernels/attention/mha.py":508:15)
#loc67 = loc("/workspace/projects/aiter/aiter/ops/triton/_triton_kernels/attention/mha.py":508:5)
#loc68 = loc("/workspace/projects/aiter/aiter/ops/triton/_triton_kernels/attention/mha.py":509:15)
#loc69 = loc("/workspace/projects/aiter/aiter/ops/triton/_triton_kernels/attention/mha.py":509:5)
#loc70 = loc("/workspace/projects/aiter/aiter/ops/triton/_triton_kernels/attention/mha.py":510:15)
#loc71 = loc("/workspace/projects/aiter/aiter/ops/triton/_triton_kernels/attention/mha.py":510:5)
#loc72 = loc("/workspace/projects/aiter/aiter/ops/triton/_triton_kernels/attention/mha.py":511:15)
#loc73 = loc("/workspace/projects/aiter/aiter/ops/triton/_triton_kernels/attention/mha.py":511:5)
#loc74 = loc("/workspace/projects/aiter/aiter/ops/triton/_triton_kernels/attention/mha.py":512:15)
#loc75 = loc("/workspace/projects/aiter/aiter/ops/triton/_triton_kernels/attention/mha.py":512:5)
#loc76 = loc("/workspace/projects/aiter/aiter/ops/triton/_triton_kernels/attention/mha.py":513:15)
#loc77 = loc("/workspace/projects/aiter/aiter/ops/triton/_triton_kernels/attention/mha.py":513:5)
#loc78 = loc("/workspace/projects/aiter/aiter/ops/triton/_triton_kernels/attention/mha.py":514:5)
#loc79 = loc("/workspace/projects/aiter/aiter/ops/triton/_triton_kernels/attention/mha.py":529:9)
#loc80 = loc("/workspace/projects/aiter/aiter/ops/triton/_triton_kernels/attention/mha.py":530:9)
#loc81 = loc("/workspace/projects/aiter/aiter/ops/triton/_triton_kernels/attention/mha.py":534:16)
#loc82 = loc("/workspace/projects/aiter/aiter/ops/triton/_triton_kernels/attention/mha.py":550:14)
#loc83 = loc("/workspace/projects/aiter/aiter/ops/triton/_triton_kernels/attention/mha.py":550:13)
#loc84 = loc("/workspace/projects/aiter/aiter/ops/triton/_triton_kernels/attention/mha.py":549:27)
#loc85 = loc("/workspace/projects/aiter/aiter/ops/triton/_triton_kernels/attention/mha.py":555:20)
#loc86 = loc("/workspace/projects/aiter/aiter/ops/triton/_triton_kernels/attention/mha.py":559:12)
#loc87 = loc("/workspace/projects/aiter/aiter/ops/triton/_triton_kernels/attention/mha.py":561:17)
#loc88 = loc("/workspace/projects/aiter/aiter/ops/triton/_triton_kernels/attention/mha.py":562:19)
#loc89 = loc("/workspace/projects/aiter/aiter/ops/triton/_triton_kernels/attention/mha.py":563:19)
#loc90 = loc("/workspace/projects/aiter/aiter/ops/triton/_triton_kernels/attention/mha.py":564:19)
#loc91 = loc("/workspace/projects/aiter/aiter/ops/triton/_triton_kernels/attention/mha.py":565:19)
#loc92 = loc("/workspace/projects/aiter/aiter/ops/triton/_triton_kernels/attention/mha.py":567:19)
#loc93 = loc("/workspace/projects/aiter/aiter/ops/triton/_triton_kernels/attention/mha.py":568:25)
#loc94 = loc("/workspace/projects/aiter/aiter/ops/triton/_triton_kernels/attention/mha.py":568:56)
#loc95 = loc("/workspace/projects/aiter/aiter/ops/triton/_triton_kernels/attention/mha.py":568:24)
#loc96 = loc("/workspace/projects/aiter/aiter/ops/triton/_triton_kernels/attention/mha.py":569:22)
#loc97 = loc("/workspace/projects/aiter/aiter/ops/triton/_triton_kernels/attention/mha.py":569:13)
#loc98 = loc("/workspace/projects/aiter/aiter/ops/triton/_triton_kernels/attention/mha.py":573:21)
#loc99 = loc("/workspace/projects/aiter/aiter/ops/triton/_triton_kernels/attention/mha.py":574:23)
#loc100 = loc("/workspace/projects/aiter/aiter/ops/triton/_triton_kernels/attention/mha.py":575:23)
#loc101 = loc("/workspace/projects/aiter/aiter/ops/triton/_triton_kernels/attention/mha.py":576:23)
#loc102 = loc("/workspace/projects/aiter/aiter/ops/triton/_triton_kernels/attention/mha.py":578:28)
#loc103 = loc("/workspace/projects/aiter/aiter/ops/triton/_triton_kernels/attention/mha.py":579:23)
#loc104 = loc("/workspace/projects/aiter/aiter/ops/triton/_triton_kernels/attention/mha.py":580:26)
#loc105 = loc("/workspace/projects/aiter/aiter/ops/triton/_triton_kernels/attention/mha.py":580:17)
#loc106 = loc("/workspace/projects/aiter/aiter/ops/triton/_triton_kernels/attention/mha.py":583:13)
#loc107 = loc("/workspace/projects/aiter/aiter/ops/triton/_triton_kernels/attention/mha.py":593:9)
#loc108 = loc("/workspace/projects/aiter/aiter/ops/triton/_triton_kernels/attention/mha.py":594:11)
#loc109 = loc("/workspace/projects/aiter/aiter/ops/triton/_triton_kernels/attention/mha.py":595:11)
#loc110 = loc("/workspace/projects/aiter/aiter/ops/triton/_triton_kernels/attention/mha.py":596:11)
#loc111 = loc("/workspace/projects/aiter/aiter/ops/triton/_triton_kernels/attention/mha.py":597:11)
#loc112 = loc("/workspace/projects/aiter/aiter/ops/triton/_triton_kernels/attention/mha.py":599:14)
#loc113 = loc("/workspace/projects/aiter/aiter/ops/triton/_triton_kernels/attention/mha.py":602:13)
#loc114 = loc("/workspace/projects/aiter/aiter/ops/triton/_triton_kernels/attention/mha.py":603:15)
#loc115 = loc("/workspace/projects/aiter/aiter/ops/triton/_triton_kernels/attention/mha.py":604:15)
#loc116 = loc("/workspace/projects/aiter/aiter/ops/triton/_triton_kernels/attention/mha.py":605:15)
#loc117 = loc("/workspace/projects/aiter/aiter/ops/triton/_triton_kernels/attention/mha.py":606:15)
#loc118 = loc("/workspace/projects/aiter/aiter/ops/triton/_triton_kernels/attention/mha.py":608:21)
#loc119 = loc("/workspace/projects/aiter/aiter/ops/triton/_triton_kernels/attention/mha.py":613:9)
#loc120 = loc("/workspace/projects/aiter/aiter/ops/triton/_triton_kernels/attention/mha.py":614:11)
#loc121 = loc("/workspace/projects/aiter/aiter/ops/triton/_triton_kernels/attention/mha.py":615:11)
#loc122 = loc("/workspace/projects/aiter/aiter/ops/triton/_triton_kernels/attention/mha.py":616:11)
#loc123 = loc("/workspace/projects/aiter/aiter/ops/triton/_triton_kernels/attention/mha.py":617:11)
#loc124 = loc("/workspace/projects/aiter/aiter/ops/triton/_triton_kernels/attention/mha.py":619:14)
#loc125 = loc("/workspace/projects/aiter/aiter/ops/triton/_triton_kernels/attention/mha.py":622:13)
#loc126 = loc("/workspace/projects/aiter/aiter/ops/triton/_triton_kernels/attention/mha.py":623:15)
#loc127 = loc("/workspace/projects/aiter/aiter/ops/triton/_triton_kernels/attention/mha.py":624:15)
#loc128 = loc("/workspace/projects/aiter/aiter/ops/triton/_triton_kernels/attention/mha.py":625:15)
#loc129 = loc("/workspace/projects/aiter/aiter/ops/triton/_triton_kernels/attention/mha.py":626:15)
#loc130 = loc("/workspace/projects/aiter/aiter/ops/triton/_triton_kernels/attention/mha.py":628:21)
#loc131 = loc("/workspace/projects/aiter/aiter/ops/triton/_triton_kernels/attention/mha.py":633:9)
#loc132 = loc("/workspace/projects/aiter/aiter/ops/triton/_triton_kernels/attention/mha.py":634:11)
#loc133 = loc("/workspace/projects/aiter/aiter/ops/triton/_triton_kernels/attention/mha.py":635:11)
#loc134 = loc("/workspace/projects/aiter/aiter/ops/triton/_triton_kernels/attention/mha.py":636:11)
#loc135 = loc("/workspace/projects/aiter/aiter/ops/triton/_triton_kernels/attention/mha.py":637:11)
#loc136 = loc("/workspace/projects/aiter/aiter/ops/triton/_triton_kernels/attention/mha.py":639:14)
#loc137 = loc("/workspace/projects/aiter/aiter/ops/triton/_triton_kernels/attention/mha.py":684:9)
#loc138 = loc("/workspace/projects/aiter/aiter/ops/triton/_triton_kernels/attention/mha.py":686:11)
#loc139 = loc("/workspace/projects/aiter/aiter/ops/triton/_triton_kernels/attention/mha.py":687:11)
#loc140 = loc("/workspace/projects/aiter/aiter/ops/triton/_triton_kernels/attention/mha.py":688:11)
#loc141 = loc("/workspace/projects/aiter/aiter/ops/triton/_triton_kernels/attention/mha.py":690:18)
#loc142 = loc("/workspace/projects/aiter/aiter/ops/triton/_triton_kernels/attention/mha.py":700:16)
#loc143 = loc("/workspace/projects/aiter/aiter/ops/triton/_triton_kernels/attention/mha.py":703:9)
#loc144 = loc("/workspace/projects/aiter/aiter/ops/triton/_triton_kernels/attention/mha.py":709:9)
#loc145 = loc("/workspace/projects/aiter/aiter/ops/triton/_triton_kernels/attention/mha.py":711:5)
#loc146 = loc("/workspace/projects/aiter/aiter/ops/triton/_triton_kernels/attention/mha.py":712:8)
#loc147 = loc("/workspace/projects/aiter/aiter/ops/triton/_triton_kernels/attention/mha.py":712:5)
#loc148 = loc("/workspace/projects/aiter/aiter/ops/triton/_triton_kernels/attention/mha.py":713:26)
#loc149 = loc("/workspace/projects/aiter/aiter/ops/triton/_triton_kernels/attention/mha.py":714:10)
#loc150 = loc("/workspace/projects/aiter/aiter/ops/triton/_triton_kernels/attention/mha.py":714:5)
#loc151 = loc("/workspace/projects/aiter/aiter/ops/triton/_triton_kernels/attention/mha.py":715:26)
#loc152 = loc("/workspace/projects/aiter/aiter/ops/triton/_triton_kernels/attention/mha.py":719:22)
#loc153 = loc("/workspace/projects/aiter/aiter/ops/triton/_triton_kernels/attention/mha.py":720:20)
#loc154 = loc("/workspace/projects/aiter/aiter/ops/triton/_triton_kernels/attention/mha.py":720:44)
#loc155 = loc("/workspace/projects/aiter/aiter/ops/triton/_triton_kernels/attention/mha.py":724:47)
#loc156 = loc("/workspace/projects/aiter/aiter/ops/triton/_triton_kernels/attention/mha.py":724:25)
#loc157 = loc("/workspace/projects/aiter/aiter/ops/triton/_triton_kernels/attention/mha.py":730:21)
#loc158 = loc("/workspace/projects/aiter/aiter/ops/triton/_triton_kernels/attention/mha.py":731:21)
#loc159 = loc("/workspace/projects/aiter/aiter/ops/triton/_triton_kernels/attention/mha.py":732:5)
#loc160 = loc("/workspace/projects/aiter/aiter/ops/triton/_triton_kernels/attention/mha.py":733:17)
#loc161 = loc("/workspace/projects/aiter/aiter/ops/triton/_triton_kernels/attention/mha.py":736:8)
#loc162 = loc("/workspace/projects/aiter/aiter/ops/triton/_triton_kernels/attention/mha.py":736:5)
#loc163 = loc("/workspace/projects/aiter/aiter/ops/triton/_triton_kernels/attention/mha.py":737:22)
#loc164 = loc("/workspace/projects/aiter/aiter/ops/triton/_triton_kernels/attention/mha.py":737:21)
#loc165 = loc("/workspace/projects/aiter/aiter/ops/triton/_triton_kernels/attention/mha.py":738:25)
#loc166 = loc("/workspace/projects/aiter/aiter/ops/triton/_triton_kernels/attention/mha.py":786:21)
#loc167 = loc("/workspace/projects/aiter/aiter/ops/triton/_triton_kernels/attention/mha.py":789:8)
#loc168 = loc("/workspace/projects/aiter/aiter/ops/triton/_triton_kernels/attention/mha.py":789:5)
#loc169 = loc("/workspace/projects/aiter/aiter/ops/triton/_triton_kernels/attention/mha.py":791:39)
#loc170 = loc("/workspace/projects/aiter/aiter/ops/triton/_triton_kernels/attention/mha.py":791:29)
#loc171 = loc("/workspace/projects/aiter/aiter/ops/triton/_triton_kernels/attention/mha.py":794:19)
#loc172 = loc("/workspace/projects/aiter/aiter/ops/triton/_triton_kernels/attention/mha.py":794:9)
#loc173 = loc("/workspace/projects/aiter/aiter/ops/triton/_triton_kernels/attention/mha.py":796:26)
#loc174 = loc("/workspace/projects/aiter/aiter/ops/triton/_triton_kernels/attention/mha.py":796:13)
#loc175 = loc("/workspace/projects/aiter/aiter/ops/triton/_triton_kernels/attention/mha.py":797:19)
#loc176 = loc("/workspace/projects/aiter/aiter/ops/triton/_triton_kernels/attention/mha.py":797:9)
#loc177 = loc("/workspace/projects/aiter/aiter/ops/triton/_triton_kernels/attention/mha.py":802:25)
#loc178 = loc("/workspace/projects/aiter/aiter/ops/triton/_triton_kernels/attention/mha.py":851:19)
#loc179 = loc("/workspace/projects/aiter/aiter/ops/triton/_triton_kernels/attention/mha.py":851:15)
#loc180 = loc("/workspace/projects/aiter/aiter/ops/triton/_triton_kernels/attention/mha.py":852:11)
#loc181 = loc("/workspace/projects/aiter/aiter/ops/triton/_triton_kernels/attention/mha.py":860:18)
#loc182 = loc("/workspace/projects/aiter/aiter/ops/triton/_triton_kernels/attention/mha.py":860:17)
#loc183 = loc("/workspace/projects/aiter/aiter/ops/triton/_triton_kernels/attention/mha.py":861:19)
#loc184 = loc("/workspace/projects/aiter/aiter/ops/triton/_triton_kernels/attention/mha.py":862:24)
#loc185 = loc("/workspace/projects/aiter/aiter/ops/triton/_triton_kernels/attention/mha.py":864:12)
#loc186 = loc("/workspace/projects/aiter/aiter/ops/triton/_triton_kernels/attention/mha.py":864:47)
#loc187 = loc("/workspace/projects/aiter/aiter/ops/triton/_triton_kernels/attention/mha.py":864:9)
#loc188 = loc("/workspace/projects/aiter/aiter/ops/triton/_triton_kernels/attention/mha.py":865:33)
#loc189 = loc("/workspace/projects/aiter/aiter/ops/triton/_triton_kernels/attention/mha.py":868:44)
#loc190 = loc("/workspace/projects/aiter/aiter/ops/triton/_triton_kernels/attention/mha.py":868:30)
#loc191 = loc("/workspace/projects/aiter/aiter/ops/triton/_triton_kernels/attention/mha.py":869:29)
#loc192 = loc("/workspace/projects/aiter/aiter/ops/triton/_triton_kernels/attention/mha.py":869:56)
#loc193 = loc("/workspace/projects/aiter/aiter/ops/triton/_triton_kernels/attention/mha.py":870:13)
#loc194 = loc("/workspace/projects/aiter/aiter/ops/triton/_triton_kernels/attention/mha.py":871:19)
#loc195 = loc("/workspace/projects/aiter/aiter/ops/triton/_triton_kernels/attention/mha.py":874:21)
#loc196 = loc("/workspace/projects/aiter/aiter/ops/triton/_triton_kernels/attention/mha.py":878:29)
#loc197 = loc("/workspace/projects/aiter/aiter/ops/triton/_triton_kernels/attention/mha.py":878:23)
#loc198 = loc("/workspace/projects/aiter/aiter/ops/triton/_triton_kernels/attention/mha.py":880:9)
#loc199 = loc("/workspace/projects/aiter/aiter/ops/triton/_triton_kernels/attention/mha.py":884:46)
#loc200 = loc("/workspace/projects/aiter/aiter/ops/triton/_triton_kernels/attention/mha.py":884:32)
#loc201 = loc("/workspace/projects/aiter/aiter/ops/triton/_triton_kernels/attention/mha.py":884:31)
#loc202 = loc("/workspace/projects/aiter/aiter/ops/triton/_triton_kernels/attention/mha.py":885:27)
#loc203 = loc("/workspace/projects/aiter/aiter/ops/triton/_triton_kernels/attention/mha.py":890:13)
#loc204 = loc("/workspace/projects/aiter/aiter/ops/triton/_triton_kernels/attention/mha.py":891:15)
#loc205 = loc("/workspace/projects/aiter/aiter/ops/triton/_triton_kernels/attention/mha.py":892:15)
#loc206 = loc("/workspace/projects/aiter/aiter/ops/triton/_triton_kernels/attention/mha.py":893:15)
#loc207 = loc("/workspace/projects/aiter/aiter/ops/triton/_triton_kernels/attention/mha.py":895:12)
#loc208 = loc("/workspace/projects/aiter/aiter/ops/triton/_triton_kernels/attention/mha.py":895:9)
#loc209 = loc("/workspace/projects/aiter/aiter/ops/triton/_triton_kernels/attention/mha.py":896:44)
#loc210 = loc("/workspace/projects/aiter/aiter/ops/triton/_triton_kernels/attention/mha.py":896:24)
#loc211 = loc("/workspace/projects/aiter/aiter/ops/triton/_triton_kernels/attention/mha.py":897:24)
#loc212 = loc("/workspace/projects/aiter/aiter/ops/triton/_triton_kernels/attention/mha.py":899:17)
#loc213 = loc("/workspace/projects/aiter/aiter/ops/triton/_triton_kernels/attention/mha.py":898:13)
#loc214 = loc("/workspace/projects/aiter/aiter/ops/triton/_triton_kernels/attention/mha.py":903:17)
#loc215 = loc("/workspace/projects/aiter/aiter/ops/triton/_triton_kernels/attention/mha.py":902:13)
#loc216 = loc("/workspace/projects/aiter/aiter/ops/triton/_triton_kernels/attention/mha.py":908:9)
#loc217 = loc("/workspace/projects/aiter/aiter/ops/triton/_triton_kernels/attention/mha.py":909:11)
#loc218 = loc("/workspace/projects/aiter/aiter/ops/triton/_triton_kernels/attention/mha.py":910:11)
#loc219 = loc("/workspace/projects/aiter/aiter/ops/triton/_triton_kernels/attention/mha.py":911:11)
#loc220 = loc("/workspace/projects/aiter/aiter/ops/triton/_triton_kernels/attention/mha.py":912:11)
#loc221 = loc("/workspace/projects/aiter/aiter/ops/triton/_triton_kernels/attention/mha.py":914:16)
#loc222 = loc("/workspace/projects/aiter/aiter/ops/triton/_triton_kernels/attention/mha.py":915:8)
#loc223 = loc("/workspace/projects/aiter/aiter/ops/triton/_triton_kernels/attention/mha.py":915:5)
#loc224 = loc("/workspace/projects/aiter/aiter/ops/triton/_triton_kernels/attention/mha.py":916:32)
#loc225 = loc("/workspace/projects/aiter/aiter/ops/triton/_triton_kernels/attention/mha.py":916:20)
#loc226 = loc("/workspace/projects/aiter/aiter/ops/triton/_triton_kernels/attention/mha.py":919:10)
#loc227 = loc("/workspace/projects/aiter/aiter/ops/triton/_triton_kernels/attention/mha.py":920:14)
#loc228 = loc("/workspace/projects/aiter/aiter/ops/triton/_triton_kernels/attention/mha.py":920:5)
#loc230 = loc("/workspace/projects/aiter/aiter/ops/triton/utils/_triton/pid_preprocessing.py":31:5)
#loc231 = loc("/workspace/projects/aiter/aiter/ops/triton/utils/_triton/pid_preprocessing.py":36:5)
#loc232 = loc("/workspace/projects/aiter/aiter/ops/triton/utils/_triton/pid_preprocessing.py":37:29)
#loc233 = loc("/workspace/projects/aiter/aiter/ops/triton/utils/_triton/pid_preprocessing.py":37:17)
#loc234 = loc("/workspace/projects/aiter/aiter/ops/triton/utils/_triton/pid_preprocessing.py":39:11)
#loc235 = loc("/workspace/projects/aiter/aiter/ops/triton/utils/_triton/pid_preprocessing.py":40:17)
#loc236 = loc("/workspace/projects/aiter/aiter/ops/triton/utils/_triton/pid_preprocessing.py":45:8)
#loc237 = loc("/workspace/projects/aiter/aiter/ops/triton/utils/_triton/pid_preprocessing.py":45:5)
#loc238 = loc("/workspace/projects/aiter/aiter/ops/triton/utils/_triton/pid_preprocessing.py":46:15)
#loc239 = loc("/workspace/projects/aiter/aiter/ops/triton/utils/_triton/pid_preprocessing.py":49:13)
#loc240 = loc("/workspace/projects/aiter/aiter/ops/triton/utils/_triton/pid_preprocessing.py":50:16)
#loc241 = loc("/workspace/projects/aiter/aiter/ops/triton/utils/_triton/pid_preprocessing.py":50:36)
#loc242 = loc("/workspace/projects/aiter/aiter/ops/triton/utils/_triton/pid_preprocessing.py":50:15)
#loc243 = loc("/workspace/projects/aiter/aiter/ops/triton/utils/_triton/pid_preprocessing.py":54:5)
#loc245 = loc("/workspace/projects/aiter/aiter/ops/triton/_triton_kernels/attention/mha.py":20:13)
#loc246 = loc("/workspace/projects/aiter/aiter/ops/triton/_triton_kernels/attention/mha.py":20:12)
#loc247 = loc("/workspace/projects/aiter/aiter/ops/triton/_triton_kernels/attention/mha.py":20:5)
#loc248 = loc("/workspace/projects/triton-openai/python/triton/language/standard.py":120:1)
#loc249 = loc("/workspace/projects/triton-openai/python/triton/language/standard.py":129:12)
#loc250 = loc("/workspace/projects/triton-openai/python/triton/language/standard.py":129:5)
#loc252 = loc("/workspace/projects/aiter/aiter/ops/triton/_triton_kernels/attention/mha.py":132:5)
#loc253 = loc("/workspace/projects/aiter/aiter/ops/triton/_triton_kernels/attention/mha.py":140:13)
#loc254 = loc("/workspace/projects/aiter/aiter/ops/triton/_triton_kernels/attention/mha.py":142:20)
#loc255 = loc("/workspace/projects/aiter/aiter/ops/triton/_triton_kernels/attention/mha.py":150:17)
#loc256 = loc("/workspace/projects/aiter/aiter/ops/triton/_triton_kernels/attention/mha.py":155:16)
#loc257 = loc("/workspace/projects/aiter/aiter/ops/triton/_triton_kernels/attention/mha.py":174:18)
#loc258 = loc("/workspace/projects/aiter/aiter/ops/triton/_triton_kernels/attention/mha.py":175:29)
#loc259 = loc("/workspace/projects/aiter/aiter/ops/triton/_triton_kernels/attention/mha.py":175:19)
#loc260 = loc("/workspace/projects/aiter/aiter/ops/triton/_triton_kernels/attention/mha.py":175:18)
#loc261 = loc("/workspace/projects/aiter/aiter/ops/triton/_triton_kernels/attention/mha.py":176:18)
#loc262 = loc("/workspace/projects/aiter/aiter/ops/triton/_triton_kernels/attention/mha.py":177:20)
#loc263 = loc("/workspace/projects/aiter/aiter/ops/triton/_triton_kernels/attention/mha.py":179:14)
#loc264 = loc("/workspace/projects/aiter/aiter/ops/triton/_triton_kernels/attention/mha.py":181:19)
#loc265 = loc("/workspace/projects/aiter/aiter/ops/triton/_triton_kernels/attention/mha.py":181:13)
#loc266 = loc("/workspace/projects/aiter/aiter/ops/triton/_triton_kernels/attention/mha.py":182:15)
#loc267 = loc("/workspace/projects/aiter/aiter/ops/triton/_triton_kernels/attention/mha.py":182:9)
#loc268 = loc("/workspace/projects/aiter/aiter/ops/triton/_triton_kernels/attention/mha.py":186:18)
#loc269 = loc("/workspace/projects/aiter/aiter/ops/triton/_triton_kernels/attention/mha.py":192:14)
#loc270 = loc("/workspace/projects/aiter/aiter/ops/triton/_triton_kernels/attention/mha.py":203:32)
#loc271 = loc("/workspace/projects/aiter/aiter/ops/triton/_triton_kernels/attention/mha.py":203:16)
#loc272 = loc("/workspace/projects/aiter/aiter/ops/triton/_triton_kernels/attention/mha.py":206:31)
#loc273 = loc("/workspace/projects/aiter/aiter/ops/triton/_triton_kernels/attention/mha.py":206:26)
#loc274 = loc("/workspace/projects/aiter/aiter/ops/triton/_triton_kernels/attention/mha.py":206:13)
#loc275 = loc("/workspace/projects/aiter/aiter/ops/triton/_triton_kernels/attention/mha.py":209:16)
#loc276 = loc("/workspace/projects/aiter/aiter/ops/triton/_triton_kernels/attention/mha.py":230:30)
#loc277 = loc("/workspace/projects/aiter/aiter/ops/triton/_triton_kernels/attention/mha.py":230:17)
#loc278 = loc("/workspace/projects/aiter/aiter/ops/triton/_triton_kernels/attention/mha.py":231:21)
#loc279 = loc("/workspace/projects/aiter/aiter/ops/triton/_triton_kernels/attention/mha.py":231:15)
#loc280 = loc("/workspace/projects/aiter/aiter/ops/triton/_triton_kernels/attention/mha.py":233:15)
#loc281 = loc("/workspace/projects/aiter/aiter/ops/triton/_triton_kernels/attention/mha.py":244:27)
#loc282 = loc("/workspace/projects/aiter/aiter/ops/triton/_triton_kernels/attention/mha.py":244:20)
#loc283 = loc("/workspace/projects/aiter/aiter/ops/triton/_triton_kernels/attention/mha.py":244:13)
#loc284 = loc("/workspace/projects/aiter/aiter/ops/triton/_triton_kernels/attention/mha.py":246:19)
#loc285 = loc("/workspace/projects/aiter/aiter/ops/triton/_triton_kernels/attention/mha.py":246:9)
#loc286 = loc("/workspace/projects/aiter/aiter/ops/triton/_triton_kernels/attention/mha.py":248:26)
#loc287 = loc("/workspace/projects/aiter/aiter/ops/triton/_triton_kernels/attention/mha.py":248:13)
#loc288 = loc("/workspace/projects/aiter/aiter/ops/triton/_triton_kernels/attention/mha.py":249:19)
#loc289 = loc("/workspace/projects/aiter/aiter/ops/triton/_triton_kernels/attention/mha.py":249:9)
#loc290 = loc("/workspace/projects/aiter/aiter/ops/triton/_triton_kernels/attention/mha.py":257:5)
#loc292 = loc("/workspace/projects/aiter/aiter/ops/triton/_triton_kernels/attention/mha.py":37:18)
#loc293 = loc("/workspace/projects/aiter/aiter/ops/triton/_triton_kernels/attention/mha.py":38:5)
#loc295 = loc("/workspace/projects/triton-openai/python/triton/language/standard.py":191:16)
#loc297 = loc("/workspace/projects/triton-openai/python/triton/language/standard.py":191:9)
#loc299 = loc("/workspace/projects/triton-openai/python/triton/language/standard.py":170:12)
#loc300 = loc("/workspace/projects/triton-openai/python/triton/language/standard.py":170:5)
#loc302 = loc("/workspace/projects/triton-openai/python/triton/language/standard.py":293:12)
#loc303 = loc("/workspace/projects/triton-openai/python/triton/language/standard.py":293:5)
#loc305 = loc("/workspace/projects/triton-openai/python/triton/language/standard.py":263:12)
#loc306 = loc("/workspace/projects/triton-openai/python/triton/language/standard.py":263:5)
#loc307 = loc("/workspace/projects/aiter/aiter/ops/triton/_triton_kernels/attention/mha.py":136:34)
#loc308 = loc("/workspace/projects/aiter/aiter/ops/triton/_triton_kernels/attention/mha.py":136:24)
#loc309 = loc("/workspace/projects/aiter/aiter/ops/triton/_triton_kernels/attention/mha.py":168:27)
#loc310 = loc("/workspace/projects/aiter/aiter/ops/triton/_triton_kernels/attention/mha.py":168:64)
#loc311 = loc("/workspace/projects/aiter/aiter/ops/triton/_triton_kernels/attention/mha.py":168:26)
#loc312 = loc("/workspace/projects/aiter/aiter/ops/triton/_triton_kernels/attention/mha.py":169:32)
#loc313 = loc("/workspace/projects/aiter/aiter/ops/triton/_triton_kernels/attention/mha.py":169:22)
#loc314 = loc("/workspace/projects/aiter/aiter/ops/triton/_triton_kernels/attention/mha.py":170:28)
#loc315 = loc("/workspace/projects/aiter/aiter/ops/triton/_triton_kernels/attention/mha.py":171:20)
#loc316 = loc("/workspace/projects/aiter/aiter/ops/triton/_triton_kernels/attention/mha.py":188:31)
#loc317 = loc("/workspace/projects/aiter/aiter/ops/triton/_triton_kernels/attention/mha.py":189:27)
#loc318 = loc("/workspace/projects/aiter/aiter/ops/triton/_triton_kernels/attention/mha.py":189:46)
#loc319 = loc("/workspace/projects/aiter/aiter/ops/triton/_triton_kernels/attention/mha.py":190:20)
#loc320 = loc("/workspace/projects/aiter/aiter/ops/triton/_triton_kernels/attention/mha.py":34:16)
#loc321 = loc("/workspace/projects/aiter/aiter/ops/triton/_triton_kernels/attention/mha.py":35:18)
#loc322 = loc("/workspace/projects/aiter/aiter/ops/triton/_triton_kernels/attention/mha.py":31:16)
#loc323 = loc("/workspace/projects/aiter/aiter/ops/triton/_triton_kernels/attention/mha.py":32:18)
#loc358 = loc("NUM_BLOCKS"(#loc1))
#loc359 = loc("NUM_BLOCKS"(#loc2))
#loc360 = loc("wid"(#loc3))
#loc361 = loc("off_q_head"(#loc4))
#loc362 = loc("off_q_head"(#loc5))
#loc363 = loc("start_m"(#loc6))
#loc364 = loc("start_m"(#loc7))
#loc365 = loc("off_z"(#loc8))
#loc366 = loc("off_z"(#loc9))
#loc367 = loc("off_z"(#loc10))
#loc368 = loc("offs_m"(#loc11))
#loc369 = loc("offs_m"(#loc12))
#loc370 = loc("offs_n"(#loc13))
#loc371 = loc("offs_d"(#loc14))
#loc372 = loc("offs_pe"(#loc15))
#loc373 = loc("offs_pe"(#loc16))
#loc374 = loc("stride_qz"(#loc17))
#loc375 = loc("stride_qh"(#loc18))
#loc376 = loc("stride_qm"(#loc19))
#loc377 = loc("stride_qk"(#loc20))
#loc378 = loc("stride_kz"(#loc21))
#loc379 = loc("stride_kh"(#loc22))
#loc380 = loc("stride_kn"(#loc23))
#loc381 = loc("stride_kk"(#loc24))
#loc382 = loc("stride_vz"(#loc25))
#loc383 = loc("stride_vh"(#loc26))
#loc384 = loc("stride_vn"(#loc27))
#loc385 = loc("stride_vk"(#loc28))
#loc386 = loc("stride_oz"(#loc29))
#loc387 = loc("stride_oh"(#loc30))
#loc388 = loc("stride_om"(#loc31))
#loc389 = loc("stride_on"(#loc32))
#loc390 = loc("stride_alibi_z"(#loc33))
#loc391 = loc("stride_alibi_h"(#loc34))
#loc392 = loc("philox_offset_base"(#loc35))
#loc393 = loc("stride_sd_z"(#loc36))
#loc394 = loc("stride_sd_h"(#loc37))
#loc395 = loc("stride_sd_m"(#loc38))
#loc396 = loc("stride_sd_n"(#loc39))
#loc397 = loc("stride_lse_z"(#loc40))
#loc398 = loc("stride_lse_h"(#loc41))
#loc399 = loc("stride_lse_m"(#loc42))
#loc400 = loc("cu_seqlens_q_start"(#loc79))
#loc401 = loc("cu_seqlens_k_start"(#loc80))
#loc402 = loc("n_blocks"(#loc81))
#loc403 = loc("n_blocks_seqlen"(#loc82))
#loc404 = loc("n_blocks_seqlen"(#loc83))
#loc405 = loc("n_blocks_seqlen"(#loc84))
#loc406 = loc("n_blocks"(#loc85))
#loc407 = loc("offs_out"(#loc87))
#loc408 = loc("offs_out"(#loc88))
#loc409 = loc("offs_out"(#loc89))
#loc410 = loc("offs_out"(#loc90))
#loc411 = loc("offs_out"(#loc91))
#loc412 = loc("acc"(#loc92))
#loc413 = loc("out_mask"(#loc93))
#loc414 = loc("out_mask"(#loc94))
#loc415 = loc("out_mask"(#loc95))
#loc416 = loc("offs_lse"(#loc98))
#loc417 = loc("offs_lse"(#loc99))
#loc418 = loc("offs_lse"(#loc100))
#loc419 = loc("offs_lse"(#loc101))
#loc420 = loc("lse_mask"(#loc102))
#loc421 = loc("lse"(#loc103))
#loc422 = loc("q_offs"(#loc107))
#loc423 = loc("q_offs"(#loc108))
#loc424 = loc("q_offs"(#loc109))
#loc425 = loc("q_offs"(#loc110))
#loc426 = loc("q_offs"(#loc111))
#loc427 = loc("q_ptrs"(#loc112))
#loc428 = loc("q_pe_offs"(#loc113))
#loc429 = loc("q_pe_offs"(#loc114))
#loc430 = loc("q_pe_offs"(#loc115))
#loc431 = loc("q_pe_offs"(#loc116))
#loc432 = loc("q_pe_offs"(#loc117))
#loc433 = loc("q_pe_ptrs"(#loc118))
#loc434 = loc("k_offs"(#loc119))
#loc435 = loc("k_offs"(#loc120))
#loc436 = loc("k_offs"(#loc121))
#loc437 = loc("k_offs"(#loc122))
#loc438 = loc("k_offs"(#loc123))
#loc439 = loc("k_ptrs"(#loc124))
#loc440 = loc("k_pe_offs"(#loc125))
#loc441 = loc("k_pe_offs"(#loc126))
#loc442 = loc("k_pe_offs"(#loc127))
#loc443 = loc("k_pe_offs"(#loc128))
#loc444 = loc("k_pe_offs"(#loc129))
#loc445 = loc("k_pe_ptrs"(#loc130))
#loc446 = loc("v_offs"(#loc131))
#loc447 = loc("v_offs"(#loc132))
#loc448 = loc("v_offs"(#loc133))
#loc449 = loc("v_offs"(#loc134))
#loc450 = loc("v_offs"(#loc135))
#loc451 = loc("v_ptrs"(#loc136))
#loc452 = loc("m_i_value"(#loc137))
#loc453 = loc("m_i"(#loc138))
#loc454 = loc("l_i"(#loc139))
#loc455 = loc("acc"(#loc140))
#loc456 = loc("q_mask"(#loc141))
#loc457 = loc("q_pe"(#loc142))
#loc458 = loc("q"(#loc143))
#loc459 = loc("n_extra_tokens"(#loc145))
#loc460 = loc("n_extra_tokens"(#loc148))
#loc461 = loc("n_extra_tokens"(#loc150))
#loc462 = loc("n_extra_tokens"(#loc151))
#loc463 = loc("padded_block_k"(#loc152))
#loc464 = loc("is_modulo_mn"(#loc153))
#loc465 = loc("is_modulo_mn"(#loc154))
#loc466 = loc("masked_blocks"(#loc155))
#loc467 = loc("masked_blocks"(#loc156))
#loc468 = loc("masked_blocks"(#loc157))
#loc469 = loc("n_full_blocks"(#loc158))
#loc470 = loc("block_min"(#loc159))
#loc471 = loc("block_max"(#loc160))
#loc472 = loc("m_i"(#loc162))
#loc473 = loc("block_max"(#loc163))
#loc474 = loc("block_max"(#loc164))
#loc475 = loc("m_i"(#loc165))
#loc476 = loc("block_max"(#loc166))
#loc477 = loc("offs_n_causal"(#loc169))
#loc478 = loc("offs_n_causal"(#loc170))
#loc479 = loc("k_ptrs"(#loc171))
#loc480 = loc("k_ptrs"(#loc172))
#loc481 = loc("k_pe_ptrs"(#loc173))
#loc482 = loc("k_pe_ptrs"(#loc174))
#loc483 = loc("v_ptrs"(#loc175))
#loc484 = loc("v_ptrs"(#loc176))
#loc485 = loc("m_i"(#loc177))
#loc486 = loc("l_recip"(#loc178))
#loc487 = loc("l_recip"(#loc179))
#loc488 = loc("acc"(#loc180))
#loc489 = loc("end_m_idx"(#loc181))
#loc490 = loc("end_m_idx"(#loc182))
#loc491 = loc("start_m_idx"(#loc183))
#loc492 = loc("causal_start_idx"(#loc184))
#loc493 = loc("out_mask_boundary"(#loc188))
#loc494 = loc("mask_m_offsets"(#loc189))
#loc495 = loc("mask_m_offsets"(#loc190))
#loc496 = loc("out_ptrs_mask"(#loc191))
#loc497 = loc("out_ptrs_mask"(#loc192))
#loc498 = loc("z"(#loc193))
#loc499 = loc("acc"(#loc194))
#loc500 = loc("overflow_size"(#loc195))
#loc501 = loc("softmax_lse"(#loc196))
#loc502 = loc("softmax_lse"(#loc197))
#loc503 = loc("softmax_lse"(#loc198))
#loc504 = loc("lse_causal_mask"(#loc199))
#loc505 = loc("lse_causal_mask"(#loc200))
#loc506 = loc("lse_causal_mask"(#loc201))
#loc507 = loc("softmax_lse"(#loc202))
#loc508 = loc("offs_lse"(#loc203))
#loc509 = loc("offs_lse"(#loc204))
#loc510 = loc("offs_lse"(#loc205))
#loc511 = loc("offs_lse"(#loc206))
#loc512 = loc("boundary"(#loc209))
#loc513 = loc("boundary"(#loc210))
#loc514 = loc("lse_mask"(#loc211))
#loc515 = loc("offs_out"(#loc216))
#loc516 = loc("offs_out"(#loc217))
#loc517 = loc("offs_out"(#loc218))
#loc518 = loc("offs_out"(#loc219))
#loc519 = loc("offs_out"(#loc220))
#loc520 = loc("out_mask"(#loc221))
#loc521 = loc("out_mask"(#loc224))
#loc522 = loc("out_mask"(#loc225))
#loc523 = loc("op"(#loc226))
#loc525 = loc("pids_per_xcd"(#loc230))
#loc526 = loc("tall_xcds"(#loc231))
#loc527 = loc("tall_xcds"(#loc232))
#loc528 = loc("tall_xcds"(#loc233))
#loc529 = loc("tall_xcds"(#loc229))
#loc530 = loc("xcd"(#loc234))
#loc531 = loc("local_pid"(#loc235))
#loc532 = loc("pid"(#loc238))
#loc533 = loc("pid"(#loc239))
#loc534 = loc("pid"(#loc240))
#loc535 = loc("pid"(#loc241))
#loc536 = loc("pid"(#loc242))
#loc562 = loc("acc"(#loc252))
#loc563 = loc("k"(#loc253))
#loc564 = loc("k_pe"(#loc254))
#loc565 = loc("v"(#loc255))
#loc566 = loc("mask"(#loc256))
#loc567 = loc("q_mask"(#loc257))
#loc568 = loc("k_mask"(#loc258))
#loc569 = loc("k_mask"(#loc259))
#loc570 = loc("k_mask"(#loc260))
#loc571 = loc("p_mask"(#loc261))
#loc572 = loc("qk_scale"(#loc262))
#loc573 = loc("qk"(#loc263))
#loc574 = loc("qk"(#loc264))
#loc575 = loc("qk"(#loc265))
#loc576 = loc("qk"(#loc266))
#loc577 = loc("qk"(#loc267))
#loc578 = loc("qk"(#loc268))
#loc579 = loc("qk"(#loc269))
#loc580 = loc("m_ij"(#loc270))
#loc581 = loc("m_ij"(#loc271))
#loc582 = loc("p"(#loc272))
#loc583 = loc("p"(#loc273))
#loc584 = loc("p"(#loc274))
#loc585 = loc("l_ij"(#loc275))
#loc586 = loc("alpha"(#loc276))
#loc587 = loc("alpha"(#loc277))
#loc588 = loc("acc"(#loc278))
#loc589 = loc("acc"(#loc279))
#loc590 = loc("l_i"(#loc280))
#loc591 = loc("acc"(#loc281))
#loc592 = loc("acc"(#loc282))
#loc593 = loc("acc"(#loc283))
#loc594 = loc("k_ptrs"(#loc284))
#loc595 = loc("k_ptrs"(#loc285))
#loc596 = loc("k_pe_ptrs"(#loc286))
#loc597 = loc("k_pe_ptrs"(#loc287))
#loc598 = loc("v_ptrs"(#loc288))
#loc599 = loc("v_ptrs"(#loc289))
#loc602 = loc("tensor"(#loc292))
#loc613 = loc("k_offs_n"(#loc307))
#loc614 = loc("k_offs_n"(#loc308))
#loc615 = loc("bound_cond"(#loc309))
#loc616 = loc("bound_cond"(#loc310))
#loc617 = loc("bound_cond"(#loc311))
#loc618 = loc("size_n"(#loc312))
#loc619 = loc("size_n"(#loc313))
#loc620 = loc("mask_partial"(#loc314))
#loc621 = loc("mask"(#loc315))
#loc622 = loc("causal_boundary"(#loc316))
#loc623 = loc("causal_mask"(#loc317))
#loc624 = loc("causal_mask"(#loc318))
#loc625 = loc("mask"(#loc319))
#loc627 = loc("mask"(#loc320))
#loc628 = loc("tensor"(#loc321))
#loc630 = loc("mask"(#loc322))
#loc631 = loc("tensor"(#loc323))
#loc632 = loc("k_ptrs"(#loc439))
#loc633 = loc("k_pe_ptrs"(#loc445))
#loc634 = loc("v_ptrs"(#loc451))
#loc635 = loc("m_i"(#loc453))
#loc636 = loc("l_i"(#loc454))
#loc637 = loc("acc"(#loc455))
#loc638 = loc("n_extra_tokens"(#loc459))
#loc639 = loc("n_extra_tokens"(#loc460))
#loc640 = loc("n_extra_tokens"(#loc462))
#loc641 = loc("block_min"(#loc470))
#loc642 = loc("block_max"(#loc471))
#loc643 = loc("l_i"(#loc472))
#loc644 = loc("block_min"(#loc474))
#loc645 = loc("l_i"(#loc475))
#loc646 = loc("block_max"(#loc476))
#loc647 = loc("k_ptrs"(#loc480))
#loc648 = loc("k_pe_ptrs"(#loc482))
#loc649 = loc("v_ptrs"(#loc484))
#loc650 = loc("l_i"(#loc485))
#loc651 = loc("acc"(#loc488))
#loc652 = loc("acc"(#loc499))
#loc653 = loc("out_mask"(#loc520))
#loc654 = loc("out_mask"(#loc522))
#loc655 = loc("pid"(#loc532))
#loc656 = loc("pid"(#loc533))
#loc657 = loc("l_i"(#loc562))
#loc658 = loc("acc"(#loc643))
#loc659 = loc("acc"(#loc645))
#loc660 = loc("acc"(#loc650))
#loc661 = loc("m_i"(#loc657))
#loc662 = loc("k_ptrs"(#loc661))
#loc663 = loc("k_pe_ptrs"(#loc662))
#loc664 = loc("v_ptrs"(#loc663))
